assets/models/example_model_OneHot_iter5.pt (torch, 112385 bytes, 10 tensors)

weight f4 [37]
000000 d9 5e 25 3f 02 e1 66 3f 58 11 58 3f 80 3b 5a 3f
       0.6459785 0.90187085 0.84401464 0.8524704
000010 c0 98 33 3f a6 0c 16 3f 9b 1b 27 3f dd fc 57 3f
       0.70154953 0.5861305 0.652765 0.84370214
000020 b1 10 5c 3f 75 7e 3f 3f 5a 18 4c 3f 05 c9 3e 3f
       0.8596297 0.74802333 0.7972466 0.7452548
000030 28 cc 58 3f bc 72 48 3f 54 1e 3b 3f fb 18 41 3f
       0.8468652 0.7830007 0.7309315 0.7542874
000040 ea 46 33 3f cf c0 31 3f ec 11 35 3f 81 bc 4f 3f
       0.7003008 0.6943483 0.7073047 0.8114701
000050 25 52 43 3f 51 6c 35 3f 81 f5 c6 3e 4a d6 8a 3f
       0.7629722 0.708684 0.3885918 1.0846646
000060 aa 88 88 3f d9 c3 6b 3f dd a5 86 3f 16 b4 7a 3f
       1.0666707 0.92095715 1.0519367 0.9793104
000070 41 3d 86 3f 4b 50 6d 3f 50 85 72 3f 2f 4b 6c 3f
       1.0487443 0.9270064 0.9473467 0.9230222
000080 01 6a 61 3f 1c 92 65 3f 7e 00 76 3f ba ce 49 3f
       0.88052374 0.8967607 0.960945 0.78831065
000090 c8 5c 6d 3f
       0.927197

bias f4 [37]
000000 a7 3e 5c 3c b3 91 c0 3d 9e c5 0b 3d d5 9a ca 3c
       0.013442672 0.0940279 0.03412401 0.024732033
000010 b3 3f 71 3d 34 43 1f 3d 00 ec 62 bd 07 b7 a0 3b
       0.05889864 0.03888245 -0.05540085 0.004904631
000020 cf b8 0e bd 1e 34 4c 3d 66 7d 39 bd 7d 8d 33 bd
       -0.034844216 0.04985439 -0.045285605 -0.043836106
000030 90 0d 2c 3d fc 25 83 3d 52 99 78 3d 47 84 3b 3c
       0.04200512 0.06403729 0.060693093 0.011445112
000040 b6 44 5c 3d 5b 47 76 b9 6d 53 a9 3d 4b 5c b7 ba
       0.053776465 -0.0002348697 0.08267865 -0.0013989297
000050 bb e1 4d bd c9 0d 3c 3c c6 60 13 3c 21 ca d4 3a
       -0.0502641 0.011477896 0.008995241 0.0016234556
000060 c5 69 82 bc 21 04 8e bc 8e 4f c9 3c ff 35 24 bc
       -0.015919575 -0.017335953 0.024574067 -0.010022639
000070 2c eb 78 3c 9b 50 bf bd c3 08 42 3d 8a 58 56 3d
       0.015192788 -0.09341546 0.047371637 0.05233053
000080 52 27 39 3d c6 6a 5d 3a 41 1e f6 bc 89 f1 9b 3c
       0.045203514 0.00084463914 -0.030043723 0.019036071
000090 78 f7 8d bd
       -0.069319665

running_mean f4 [37]
000000 dd 87 ad 34 e8 16 19 35 0a 05 08 35 3f 8e 25 35
       3.2322615e-07 5.7030275e-07 5.067128e-07 6.1674285e-07
000010 98 d4 9c 34 0c 3e 09 34 61 72 b3 34 ed 62 13 34
       2.9211947e-07 1.2781692e-07 3.342457e-07 1.3726431e-07
000020 e9 fc ad 34 c7 91 f2 34 aa 70 ad 34 cb e3 a0 34
       3.2407777e-07 4.518208e-07 3.2305735e-07 2.9968064e-07
000030 7f 07 19 35 f0 97 03 35 a2 dc e9 34 ff 9a 00 35
       5.700785e-07 4.90224e-07 4.3560163e-07 4.7909265e-07
000040 ae de b9 34 2a 0a 89 34 73 ab e4 34 6c 5b 8d 34
       3.4620956e-07 2.5525634e-07 4.2593055e-07 2.6329815e-07
000050 75 95 f6 34 93 c2 a2 34 74 ff 7f 3f e8 0b ce 3e
       4.5929815e-07 3.0316423e-07 0.99999166 0.4024346
000060 0d a8 3b 40 94 59 8c 3f ea 75 91 3f c8 e2 ba 3e
       2.932132 1.0964837 1.136411 0.36501145
000070 39 03 f5 40 02 c8 e7 40 ff 5a e2 3e 56 c8 ad 40
       7.6566434 7.243165 0.4421005 5.430705
000080 74 7e 18 3f 2e 6e ab 41 fa af c2 41 1f cd 1e 43
       0.5956795 21.428799 24.335926 158.80125
000090 f8 d8 a9 3d
       0.08293337

running_var f4 [37]
000000 37 d5 a6 34 e2 8d 0e 35 9d 6b ff 34 37 5f 19 35
       3.1075044e-07 5.310559e-07 4.757575e-07 5.71355e-07
000010 ad 62 97 34 02 32 07 34 7a 46 ac 34 9d ef 10 34
       2.8197738e-07 1.2591047e-07 3.2088775e-07 1.3498216e-07
000020 88 4c a7 34 7e 89 e5 34 6b 9c a6 34 e8 2d 9b 34
       3.1161858e-07 4.2754613e-07 3.1033719e-07 2.89044e-07
000030 e4 7a 0e 35 d5 bc f7 34 a9 b2 dd 34 77 7c f2 34
       5.307795e-07 4.6144729e-07 4.129445e-07 4.5166573e-07
000040 ed 06 b2 34 3f 9e 84 34 b1 cf d8 34 4f e3 88 34
       3.3160123e-07 2.4702055e-07 4.038425e-07 2.5497363e-07
000050 d7 0e e9 34 06 f2 9c 34 ae 4b 11 22 d5 50 18 40
       4.341043e-07 2.923336e-07 1.9691229e-18 2.3799336
000060 ee 21 8d 40 eb d8 f7 3f c5 e6 b4 40 c5 ab d9 40
       4.410392 1.9363073 5.65317 6.802218
000070 e3 46 87 41 4c 3d c2 41 7a a4 09 40 81 f0 82 41
       16.909613 24.27993 2.1506639 16.367434
000080 2b 84 43 40 27 87 dc 44 07 e2 07 44 93 82 d9 44
       3.054942 1764.2235 543.5317 1740.0804
000090 ae 19 19 40
       2.3921924

weight f4 [512, 37]
000000 ae 9b c3 bc a1 b1 40 3c 3d b3 9e bc 2c 1e c9 bc
       -0.023877945 0.0117611 -0.019372577 -0.02455052
000010 5b ba f8 3b ba 0c 45 bc 51 f9 9e 3c 56 7d 1b 3d
       0.0075905747 -0.01202696 0.019405993 0.037961327
000020 41 a5 10 bd c9 e5 48 bd 8d 50 0b bc 90 ee 1a 3d
       -0.03531385 -0.049047265 -0.0085030915 0.037825167
000030 8e e6 a0 3a 34 fb 71 3c 0f 60 8b 3c 01 38 b7 bc
       0.0012275742 0.014769364 0.017013578 -0.022365572
000040 f1 7b 01 3c 39 92 c3 bb d6 7f 97 3b 32 d6 46 bc
       0.007903085 -0.005968359 0.0046233935 -0.012136029
000050 0c 69 8b 3c a7 10 87 3c d3 90 3b bc 20 bf 38 bd
       0.017017864 0.016487433 -0.011448103 -0.045104146
000060 aa f4 15 bd 14 5c 97 bc 13 64 8e 3d 68 f8 a5 ba
       -0.036610283 -0.018476523 0.069526814 -0.0012662532
000070 0e 48 30 3d 51 49 43 bd 3d f2 ba 3c 72 0f cd ba
       0.043037467 -0.04767734 0.022820586 -0.0015644862
000080 9a 36 3d bd 99 c3 13 bd 52 e5 e9 3b 3f 6a ed 3b
       -0.04619465 -0.03607521 0.007137933 0.0072453315
000090 33 63 12 3c 9b 92 93 ba 55 bb e7 3c 63 82 36 bb
       0.008934784 -0.0011258902 0.028287569 -0.0027848713
0000a0 36 c3 91 3c a5 0e c4 bc 89 3c 80 3c 62 4e 13 3d
       0.01779328 -0.023932764 0.015653865 0.035963424
0000b0 dd 6b 24 3d c9 fc b8 3d 80 7e 64 bd 77 ed ee 3b
       0.04014193 0.0903259 -0.055784702 0.0072914916
0000c0 b9 07 06 3d 93 06 01 bd 1f f4 3a 3d 74 51 17 3d
       0.03272221 -0.03150041 0.04564297 0.036942914
0000d0 af 8b 0d bd da c5 d6 bc 45 f6 27 3c 80 ab 14 bd
       -0.03455704 -0.02621739 0.010251586 -0.036296368
0000e0 ff a2 4e 3c ed 4d aa 3d 6e 68 82 bc 16 23 b6 bb
       0.0126121035 0.083156444 -0.015918937 -0.005558382
0000f0 9f ea 82 3c cd 7e 02 3d 36 3b ef bb ed 65 97 bc
       0.015981017 0.031859208 -0.0073007597 -0.01848122
000100 18 68 f9 bc b5 fa 20 3c 96 22 0e bd e0 94 99 3d
       -0.030445144 0.009825398 -0.034700952 0.07499099
000110 8a c1 85 bc 8a 8f fa bc 0d a8 46 3d 45 96 ca bc
       -0.016327638 -0.030586023 0.04850011 -0.024729857
000120 a1 1a b6 bc 5d 72 08 3a f2 e8 a2 3c 3b ce 18 bd
       -0.022229495 0.000520503 0.019886468 -0.03730605
000130 ed e5 59 3d 8f c3 77 3d 6a 10 a9 3d 7e c1 10 3d
       0.05319779 0.060489234 0.08255084 0.03534078
000140 19 91 05 3b f2 81 8e 3d 43 62 56 bd bb 75 42 3d
       0.0020380674 0.06958379 -0.052339803 0.047475558
000150 17 d9 fb bc 84 dc 9a 3d 24 18 1e 3c 55 84 03 3c
       -0.030743165 0.07561591 0.00964931 0.008027156
000160 1c c0 ba bc 05 d7 f9 3c ab 3a 82 3d a1 a9 d7 bc
       -0.022796683 0.030498037 0.06358846 -0.026326003
000170 e7 da 82 3d 24 ae 08 3d 17 3d 29 bd 1d 69 3d 3d
       0.063894086 0.0333692 -0.041318025 0.046242822
000180 d6 c6 c1 3c b3 75 94 bd 5a ad f2 3c 04 40 71 3d
       0.023654383 -0.07249012 0.029623676 0.05889894
000190 69 20 a2 bd bd e5 7a bd 0e a6 03 bd 03 94 53 bd
       -0.07916338 -0.06125425 -0.032140784 -0.051654827
0001a0 25 9b 8a bd 41 26 9d 3d 09 a1 30 3d 73 36 c1 bc
       -0.06767873 0.07673312 0.043122325 -0.023585534
0001b0 48 e4 f7 3d 1e 58 24 bd 20 78 d4 39 81 ec 05 bc
       0.12104088 -0.040123098 0.0004052529 -0.008174063
0001c0 39 ec 32 bd 07 f1 8b bd ee 83 b5 3b 8e 0c a0 3c
       -0.04368231 -0.06833082 0.005539409 0.019537237
0001d0 6a c0 06 bd 80 7e 15 bc 18 76 a0 bb 9c e4 f9 3b
       -0.032898344 -0.009124398 -0.0048968904 0.0076261293
0001e0 a4 74 10 bc 91 3d 6e 3d bb 73 64 3d a7 14 ff 3b
       -0.008816872 0.058164183 0.05577443 0.0077844444
0001f0 30 cc 46 bc 59 cf 37 3d 77 34 50 bd 45 6a cd bc
       -0.012133643 0.044875477 -0.050831284 -0.025075087
000200 ad 15 63 3d fd c9 99 bb a2 41 f9 3c d3 60 d1 b9
       0.055440594 -0.0046932683 0.030426804 -0.00039935726
000210 9d 79 02 bd fc 65 8a bc 30 94 62 bd 76 84 1f 3d
       -0.03185426 -0.016894333 -0.055317104 0.038944684
000220 a5 52 86 3c 75 6c bf 3d a0 28 12 bd 53 84 37 bd
       0.01639683 0.093468584 -0.035683274 -0.04480393
000230 a8 45 2c 3b 2e dd fc 3c 5c fd ba bc 66 a0 84 bc
       0.0026286636 0.030867185 -0.02282589 -0.016189765
000240 8b 9d 79 bc 36 fb 22 3d 24 80 ef 3c d2 80 51 3c
       -0.015235315 0.039790355 0.029235907 0.012787061
000250 e4 f0 ef 3c 4c 5b 82 bd 74 94 2b 3d d4 46 fa bc
       0.02928967 -0.0636507 0.041889623 -0.030551352
000260 ca 6d 00 3d 4f 24 b3 bb 67 4b 8b 3d 44 a2 a7 3d
       0.031354703 -0.005466975 0.06801491 0.081852466
000270 ef 7d 5d bd 9f 52 84 3d 15 cf a3 bd 52 9c 71 bd
       -0.054075178 0.06461071 -0.07998482 -0.05898697
000280 31 2e 91 3d 21 10 8e bb 42 32 de 3c 27 3e 8d 3d
       0.070888884 -0.004335419 0.027123574 0.0689662
000290 f0 23 9f 3d 96 42 ff 3c 65 f5 61 3d 58 fc fe bc
       0.077705264 0.03115968 0.055165667 -0.031126186
0002a0 ab 1c a0 3c 80 dd 8d 3c 4d a3 5c 3c b7 9d 13 be
       0.01954492 0.017317533 0.013466668 -0.14415632
0002b0 0d ab c0 bb bf d0 15 3d 39 3c 06 bd 41 30 94 bd
       -0.005879766 0.03657603 -0.032772277 -0.07235766
0002c0 51 cb dd bc 9a a7 4c bd 7f 0e b7 3d 11 7d 94 3d
       -0.027074488 -0.049964525 0.08938312 0.07250417
0002d0 97 9b 53 bd c2 9d c9 3c ac aa ed 3d 98 75 93 3c
       -0.051662054 0.024611358 0.11604819 0.018000409
0002e0 98 5f 17 3a 5c 1c 40 3b 4d 92 ec 3c f7 96 0e 3d
       0.00057744374 0.0029313779 0.028878355 0.03481194
0002f0 92 34 7e 3d 79 62 0e 3d e7 ef 89 3d 2a 2b 74 bd
       0.062061854 0.03476188 0.06735211 -0.059611477
000300 0f e7 c4 bc ed 0c 34 bc be e9 1d bb ce b4 56 3d
       -0.024035959 -0.01098941 -0.002409562 0.052418523
000310 be af 4f 3d a5 90 24 bd 24 ee c0 3d 42 55 95 3d
       0.05070471 -0.040177006 0.09420422 0.07291652
000320 b0 28 7d 3d 3b 6b 23 bc 01 c3 09 3c 5c b6 9a bc
       0.06180638 -0.009974296 0.008408309 -0.018885784
000330 f4 be ac 3c a3 00 9a 3c 25 95 a6 bd f6 a5 04 3c
       0.021087147 0.018799132 -0.08133916 0.008096209
000340 b1 be 0d 3d 1f 74 b1 bd cd ec ad bd 23 81 1d bd
       0.034605686 -0.086647265 -0.08492432 -0.038453232
000350 c2 1f d9 3d a6 7a 91 bd 0c 55 e3 3d 1e b6 80 bd
       0.106017604 -0.071034715 0.11100206 -0.06284736
000360 90 a1 87 bd 72 a4 a3 3d db 27 d3 3d 1e 19 81 bd
       -0.066226125 0.0799035 0.10310336 -0.06303619
000370 3a df bd bb a7 7c b4 3b 93 d5 fa bc 80 4a e5 3a
       -0.005794433 0.005508024 -0.030619418 0.0017493516
000380 87 9a a4 3b ae 87 a0 bc 4b 11 d1 bc 1d b9 aa bc
       0.005023304 -0.019595947 -0.025520941 -0.020840222
000390 39 f9 cd 3c af 14 9b bc b5 a7 bb 3c 23 5a 79 3b
       0.025143253 -0.018930761 0.022907117 0.003804811
0003a0 05 91 9f 3c 80 b5 a4 3c 14 8b 3c bb 33 10 1e bd
       0.01947833 0.020106077 -0.002876942 -0.038589668
0003b0 00 18 8f 3b 47 d9 6a bb f8 e3 64 3c 21 30 e3 bb
       0.0043668747 -0.0035835074 0.013970368 -0.0069332276
0003c0 a8 24 ec bc 08 1f 84 3c ee d8 d9 3a 96 0b b1 3c
       -0.028826073 0.016128078 0.0016620436 0.02161197
0003d0 68 47 49 3b f8 c0 8b 3c 5d 14 21 bd d5 ce 7a 3c
       0.0030712727 0.017059788 -0.03932606 0.015308102
0003e0 13 55 5e bd d0 f7 0f 3d 53 6d 3b bc 16 3c 2d bd
       -0.05428035 0.03514844 -0.011439639 -0.04229363
0003f0 a3 f4 0c 3d 09 e9 92 3c 0f f5 d8 bc 26 b2 2e 3d
       0.03441299 0.017933385 -0.02648404 0.042650364

bias f4 [512]
000000 cc 4e 0c 3d 1a 77 06 3c 92 49 ae bc 5d 01 1c bd
       0.034254834 0.008207107 -0.021275315 -0.038087238
000010 1e d1 78 bc cd d6 91 bc ba 77 93 bc e3 91 3d bd
       -0.015186576 -0.01780262 -0.018001426 -0.046281707
000020 83 55 a2 3c 0f 1e 37 3d da 5d fe 3d d8 85 9a 3c
       0.019816166 0.0447064 0.124202445 0.01886265
000030 11 b4 c8 bc 6c c0 4a bc c9 0e 15 bc 38 08 38 bb
       -0.024499925 -0.0123749785 -0.009097763 -0.002808107
000040 14 c8 d4 3c 98 74 dd 3d 60 13 7b bd ca 4f 51 3c
       0.025974311 0.10813254 -0.061297774 0.012775371
000050 7a 77 e3 3c e9 c8 6d bd 8c f5 c7 3c e8 8b 89 3d
       0.027766932 -0.05805293 0.024409078 0.06716138
000060 ca 5e 23 bc 9e 38 33 3d 4a 95 bd 3d 06 26 93 bd
       -0.00997133 0.043755166 0.0925699 -0.07184987
000070 fd 14 9d 3c 25 8f 3e 3d ea 2c 64 3d 0f 42 ed 3b
       0.019175047 0.046523232 0.055706896 0.007240541
000080 f5 2d c6 3c 1a d9 b3 bc 33 5b 87 bc 0c 3e 33 bb
       0.024191836 -0.021954108 -0.01652298 -0.0027350215
000090 39 92 7e 3c e1 09 8e 3a 0b 18 e9 3c 7b 6d 26 bd
       0.015537792 0.0010836684 0.028453847 -0.040631752
0000a0 c7 ee 99 bc 55 fb 3c 3d fe 6b 4e 3d 4e 7a 68 3d
       -0.018790616 0.046138126 0.050395958 0.056757264
0000b0 f0 4c 1d 3d 3d 1a 0d 3c 15 6a 88 3d 3d a0 90 3d
       0.03840345 0.008612213 0.066608585 0.07061813
0000c0 aa 0e 58 3d 18 f5 aa 3c 4b 9b 07 bc d9 e1 91 3c
       0.05274836 0.020868823 -0.008276771 0.017807888
0000d0 6e 22 39 bc 6b 27 9b ba cc c1 14 3d b6 64 41 3d
       -0.011299713 -0.0011837309 0.03631763 0.047215186
0000e0 b0 a0 eb bb a6 fc a8 3c 24 86 0a 3c 54 9b 32 bd
       -0.0071907863 0.020628285 0.008454833 -0.043605164
0000f0 a4 fe 0a 3b 6a 53 b5 3c 34 37 f2 bb 98 db 6a 3d
       0.0021208907 0.022134501 -0.0073918346 0.057338327
000100 35 6f 29 bd 49 04 80 3d 2a 73 0a 3d ad 46 fa 3c
       -0.04136582 0.06250817 0.033801235 0.030551279
000110 f5 c7 40 3c 09 a0 80 3c a5 c9 d3 3b 1d bd 24 3d
       0.0117664235 0.01570131 0.006463247 0.040219415
000120 e2 f3 ee 3c 7b 8c eb 3c eb 4d f7 bc 0b df 96 3b
       0.029169027 0.02875351 -0.030188521 0.0046042255
000130 06 19 2e 3d a4 9d 92 bc b6 bb d0 3d f1 5b 68 3d
       0.042504333 -0.017897435 0.10192053 0.056728307
000140 81 91 9b 3b 69 0e 18 3e 17 5d 53 bb d2 c0 0d 3d
       0.00474757 0.14849247 -0.003225153 0.034607716
000150 05 f2 18 bd 64 90 76 3d b4 bc b4 3c 21 66 4b bc
       -0.037340183 0.060196295 0.022062637 -0.012414486
000160 6c 03 89 3c 42 b7 4d bc e9 96 a5 3a bc c7 7e bb
       0.016725264 -0.012555899 0.0012633476 -0.0038876375
000170 d3 77 2f 3d a8 53 b0 3a f0 6c bc 3b 3b 40 36 3d
       0.042838883 0.0013452666 0.005750291 0.04449485
000180 03 73 05 3c e0 dd 0e bd 3e 39 16 3d d9 87 83 bd
       0.008145097 -0.034879565 0.036675684 -0.06422395
000190 54 1b d1 bc 06 f6 71 3d 56 3a db bd 75 b4 0a bd
       -0.025525726 0.059072517 -0.10704486 -0.033863503
0001a0 f8 ed 63 bc 57 f4 53 bd e3 f5 0e bc 77 e8 af 3c
       -0.013911717 -0.051746693 -0.008725616 0.021473153
0001b0 05 9b 24 bb 9d 1a 33 bd b2 ba 2f bd 41 c7 10 3d
       -0.0025116813 -0.043726552 -0.042902656 0.035346273
0001c0 90 46 a3 3b 7c d1 9e 3d 71 82 02 3d 4c 67 cb 3d
       0.004982777 0.077548 0.03186268 0.09931812
0001d0 13 13 32 3b eb f6 28 3d a6 a6 17 3d c7 54 af 3d
       0.0027172014 0.041251104 0.037024163 0.08561092
0001e0 ee 80 b9 bb 63 9d 55 bc 49 cb 91 3b 1d 53 80 bd
       -0.0056611216 -0.013038012 0.0044492823 -0.062658526
0001f0 db f4 39 ba 65 e5 25 3d 64 7f 05 bd e6 b9 68 3c
       -0.0007093676 0.04050197 -0.032592192 0.014204478
000200 7e 85 3d bd 13 ce 74 3d 9d 7c 2e bd 20 84 25 3d
       -0.046269886 0.05976684 -0.04259931 0.040409207
000210 71 2a a4 3d 1e a0 46 bd d4 1a 93 3c a0 b8 13 bd
       0.080159076 -0.048492543 0.017957129 -0.036064744
000220 d6 64 d3 3c 3d e3 e0 3c 14 bb 06 3d 87 f3 c1 bb
       0.025804918 0.027452106 0.032893255 -0.0059189233
000230 48 6a 58 3d 36 d1 d2 3d 98 ed ef 3c d3 a4 55 bc
       0.052835733 0.1029381 0.029288098 -0.013039785
000240 e8 b0 af 3c ad cb 76 3c a4 df 87 bb 84 33 09 bd
       0.02144666 0.0150632085 -0.004146533 -0.033496395
000250 52 b6 21 3d 11 f9 11 3e 58 2d 58 3c c8 73 9d bc
       0.039480515 0.14255168 0.013194405 -0.019220248
000260 74 90 7a 3c 8f b2 15 3c c7 2a 93 bd de 79 a1 3c
       0.015293229 0.00913681 -0.071858935 0.019711431
000270 2c 42 cf 3d 10 ec 2c bd 15 fd cc 3c 54 35 4e bd
       0.10120043 -0.042217314 0.025023023 -0.050343826
000280 7f 13 fa 3c 69 8b e2 3c ff 0a 15 bd 51 0b d0 bc
       0.030526875 0.027654367 -0.03638744 -0.025396021
000290 d3 72 e5 bc 7e c3 70 bb ab 69 e9 3d 67 4c b2 3d
       -0.028008854 -0.0036737616 0.11397108 0.08705979
0002a0 4c 7d 16 bc 79 76 62 3c c8 24 8b 3c 49 7b ac 3d
       -0.009185147 0.013822191 0.016985312 0.08421952
0002b0 82 4f 35 bd a4 41 65 3c 02 81 ca 3c 54 7c 55 3a
       -0.044265278 0.013992701 0.024719719 0.00081438315
0002c0 2b bb f7 bc ce 87 75 bc 15 fb 61 3d 00 1a 25 bd
       -0.030240616 -0.014985992 0.05517109 -0.040308
0002d0 29 f6 99 3c 59 40 3c 3c f4 56 27 bd fb 1f b4 3d
       0.018794136 0.011489951 -0.04085441 0.08795162
0002e0 54 a1 3b bc 6d f1 e2 bc 58 f2 50 3c e1 5b fb b9
       -0.011452038 -0.027703011 0.012753092 -0.00047942906
0002f0 eb f9 78 bc b3 5f b7 3d fb e9 81 3d 4d 77 d1 bc
       -0.015196304 0.089538 0.06343456 -0.025569582
000300 71 00 13 3d 05 7f 40 3d d5 b7 6b bd c4 32 bb 3b
       0.035889093 0.046996135 -0.057548363 0.005712839
000310 cf f1 ae 3d 16 11 9f 3b 61 9e 86 3d c7 e0 08 bc
       0.08542215 0.0048543317 0.06573177 -0.008354372
000320 ac 0a 43 bc 4d 36 d2 3d 08 20 44 3d 38 52 cc bb
       -0.0119044 0.10264263 0.04788211 -0.006235387
000330 80 a6 88 bc f8 9f 27 3d c0 07 2f 3c d5 ac 02 3e
       -0.016680956 0.040924042 0.010683 0.12761243
000340 5e 74 08 bd 59 4b 54 bb 5b 84 6a bd 69 8b 60 3d
       -0.0333141 -0.0032393544 -0.05725513 0.054820452
000350 e6 f1 3c 3d 24 bd 99 3c da 22 b0 3d 79 9a c8 3c
       0.04612913 0.018766947 0.086003974 0.02448772
000360 4a 74 e0 3b 0e a9 b8 3c f6 55 93 3c 73 49 10 bd
       0.0068498002 0.022541549 0.017985325 -0.035226297
000370 97 9f 4c 3d 8e c8 f0 bb 84 e9 50 3c ef 05 91 3d
       0.049956884 -0.0073481267 0.012750987 0.0708121
000380 9e f7 3f bd 1f 69 bb bb 60 93 fc bc 07 ec 09 3c
       -0.046867006 -0.0057193185 -0.030831993 0.00841809
000390 a7 5a d5 39 6c bb 80 3d 67 62 70 bd 92 77 13 bd
       0.00040694067 0.06285748 -0.058687594 -0.036002703
0003a0 fe dd 22 3d 58 70 80 3c 8f 78 45 bd f8 ac be 3d
       0.03976249 0.01567857 -0.048210677 0.09310335
0003b0 49 0d f1 3c ef 19 50 3c 48 b3 5c bc 5f 7b b0 bd
       0.02942528 0.012701496 -0.013470478 -0.08617281
0003c0 22 eb 88 bb ed 00 f9 bc 9f f7 5f 3d 6e 19 8f bc
       -0.0041784206 -0.03039595 0.05467951 -0.01746818
0003d0 a7 4c 0d bb 82 8e c7 bd 68 72 b4 bc 4c f5 6b 3c
       -0.002156058 -0.09743978 -0.02202721 0.014401745
0003e0 df 1f 96 bc b6 ec 56 bd 71 c6 0f bd 4e 00 2c 3d
       -0.018325744 -0.05247184 -0.035101358 0.041992478
0003f0 aa e1 f4 3c 6b 73 cc bc ed da fe 3b 47 3e 28 3d
       0.029892761 -0.02495738 0.007777563 0.041075017

weight f4 [14, 512]
000000 88 28 77 bc b0 1e 32 bb f6 5b 98 3d 17 fa c8 bb
       -0.015085347 -0.0027178936 0.07439415 -0.0061333287
000010 ef 4a b2 3d fd 73 b4 3d d9 fd f0 bc 2d c8 6f bb
       0.08705699 0.088111855 -0.029417919 -0.003658782
000020 67 a1 2c bd ed 53 8a 3d e7 b4 8a 3d 6a ac 55 bd
       -0.042146113 0.06754289 0.06772786 -0.05216638
000030 95 84 1d bd 2f e4 63 bc dc 5a 78 3c 41 fb 2a bd
       -0.03845652 -0.013909384 0.015158381 -0.04174352
000040 20 e7 ad bc 5e 74 a3 3d 58 84 2c bd db ff 0f bd
       -0.021228373 0.0798118 -0.0421184 -0.035156112
000050 6a dd 17 3b 4e 83 d3 bc 5a 28 7b 3d 84 2b 92 3d
       0.0023172745 -0.025819447 0.06131778 0.07137206
000060 b0 05 d1 bc ab aa af 3d 8e e0 7c 3d 07 12 d4 bd
       -0.025515407 0.08577474 0.06173759 -0.10355001
000070 82 e3 bf bc ae a2 ac 3d 0a 5a b3 3d 9b 19 50 3d
       -0.023423914 0.08429466 0.08757408 0.05080567
000080 d1 d5 39 3b 11 ba 58 bc af 73 84 3d 33 6c 9f 3c
       0.0028356204 -0.013227955 0.064673774 0.019460773
000090 75 db 58 3d e3 1e f3 3c 3b 1d 09 bd 81 aa 15 bd
       0.052943666 0.029677814 -0.033475142 -0.03653956
0000a0 c6 00 3e 3b f6 de c3 ba dc 41 a9 3d 86 94 f1 3c
       0.002899216 -0.0014943767 0.08264515 0.029489767
0000b0 12 5a b6 bd ae 09 75 bd f9 2c 8e 3d 1a 1e dc bc
       -0.08903898 -0.059823684 0.069421716 -0.026869822
0000c0 0f a6 2c 3d c9 e6 a7 bc 62 38 ac 3c 14 62 43 3d
       0.042150553 -0.02049579 0.02102298 0.047700956
0000d0 2e c7 5b 3d 77 35 10 bd 7b 14 b2 bc 5d bc 2e 3d
       0.05365675 -0.035207238 -0.021738281 0.042660106
0000e0 99 d2 01 3d d4 c3 73 bc ef 64 ab 3d 74 68 d2 bc
       0.031694982 -0.014878232 0.08368861 -0.025684573
0000f0 8c c8 34 bd 29 a1 a1 3c d4 d0 de bc d0 97 81 3d
       -0.04413657 0.019730167 -0.027199186 0.06327784
000100 20 72 bd bc ff a3 97 3d ea 10 26 bd d8 b7 89 3d
       -0.023125708 0.07404327 -0.040543474 0.067245185
000110 84 61 cf 3c 08 14 c1 3b 89 10 22 3d 87 bf 21 3d
       0.025315054 0.0058922805 0.03956655 0.039489295
000120 50 f0 5f 3d 61 1e 00 3d fc a8 60 3c 4f ac 4c 3d
       0.05467254 0.03127897 0.013712164 0.049969014
000130 87 04 b2 3d b7 7f bc 3d 46 2c 67 3d 79 51 47 3d
       0.0869227 0.09204047 0.056438707 0.048661683
000140 95 66 af 3b 61 a5 c1 3d 9e 8a c4 bb 9e 09 98 3c
       0.005352805 0.09455372 -0.00599797 0.018559273
000150 dd 74 76 3d d9 f3 69 bd ea 5a 6b 3d c8 27 b9 3d
       0.060170043 -0.057117317 0.05745975 0.09040791
000160 92 0b 0a bc fd 9f 58 bd 77 85 16 bc 19 04 81 3d
       -0.00842561 -0.05288695 -0.009187094 0.0629961
000170 93 a1 fc bc 3c 79 d8 3c a1 4e 02 3d 0a c2 52 3d
       -0.030838763 0.026424997 0.031813268 0.05145458
000180 4f c8 1a 3c 38 4c 52 bd e4 d0 82 3d b7 8c 73 bd
       0.009447171 -0.05134222 0.06387499 -0.059460368
000190 8a 4d fa bb 7b 88 7f 3d 73 92 21 bd da 86 93 bd
       -0.007638638 0.062386017 -0.039446305 -0.07203455
0001a0 d5 7a 33 bd b0 eb 1b bd de 21 23 3d b9 4f d4 bc
       -0.043818314 -0.038066566 0.03982722 -0.025916921
0001b0 8a 28 fa bc 40 b4 7b bd 54 68 9b bd c3 09 21 bd
       -0.030536909 -0.061451197 -0.075882584 -0.03931595
0001c0 11 9d 09 bd dd 85 86 3d 48 b4 c8 bc b7 b5 80 3d
       -0.033597056 0.06568501 -0.024500027 0.06284659
0001d0 d7 44 fd 3c 13 bd b7 3d 2f ea aa 3c b5 c7 59 3d
       0.030916614 0.0897161 0.02086362 0.05316897
0001e0 e1 dc ba 3d 51 e1 95 3d d7 09 f4 3a e7 18 92 bd
       0.091241606 0.07318366 0.0018618655 -0.07133656
0001f0 48 1f e9 bc 41 2f 3c 3d 23 c2 84 3d 7c 2d 99 3c
       -0.028457299 0.045943502 0.06482341 0.018698446
000200 5c 77 c5 bc 7b c2 9f 3d 07 3c 3b bc e8 61 6d bd
       -0.024104767 0.07800766 -0.011427886 -0.0579547
000210 9a 93 b3 3d 33 29 48 bd fe ea 45 bc 2d c7 eb bc
       0.08768387 -0.048867416 -0.012079952 -0.028781498
000220 b6 30 70 3d 2b 2e 8e 3d 07 43 5f 3d 6f 62 95 bc
       0.058640204 0.069423996 0.05450728 -0.018235413
000230 2b 2a b3 3d 99 1b a6 3d c5 2d e4 3c d7 0a 8e bc
       0.08748277 0.081107326 0.027853856 -0.017339153
000240 ea 1d 42 bd 6e 67 e6 bb 73 4f cb bc ee 9c 96 3d
       -0.04739181 -0.0070313727 -0.024818158 0.07354151
000250 59 66 8e 3d f9 cb aa 3d 62 ec 74 3d f1 1b cc bc
       0.06953115 0.08339686 0.059795745 -0.024915667
000260 b0 0f 80 3b a8 e0 13 3d 0e 9d 3e bd f0 82 b1 3d
       0.00390812 0.03610292 -0.046536498 0.086675525
000270 e7 c0 0f 3d 26 2a 1c bd 27 db e8 3c 6a 1b 0b bd
       0.035096075 -0.038126133 0.028424812 -0.03396169
000280 25 30 0d 3c c0 f2 65 b8 f8 09 99 bb b6 6c ba 3b
       0.008617436 -5.4823933e-05 -0.004670378 0.005689229
000290 ed 35 01 bd 09 72 51 bd 3c 0f 3e 3d e9 5e 62 3d
       -0.03154557 -0.051134143 0.046401247 0.055266295
0002a0 a9 d7 82 3d 5c 46 91 3c b6 1d f2 3c 43 15 97 3d
       0.0638879 0.017733745 0.029555183 0.07377102
0002b0 a8 1e b1 3d 49 57 4e bd 66 b4 85 3d 54 c3 17 bd
       0.08648425 -0.05037621 0.06528549 -0.037051514
0002c0 56 ff 00 3e f0 60 45 bd 9b f7 ba 3d dc 79 a2 bd
       0.12597403 -0.04818815 0.09129258 -0.07933399
0002d0 86 1a 2a 3d d1 74 7e 3d b5 e2 7c bc 72 30 a4 3d
       0.0415292 0.062123124 -0.015434911 0.08017053
0002e0 f8 16 12 3c be 41 4d bd b3 3a 54 bc 94 6e 9a 3d
       0.008916609 -0.050111525 -0.012953448 0.07540622
0002f0 04 49 a6 bc da 0b b5 3d 41 34 96 3c f6 d2 62 3d
       -0.020298488 0.08840151 0.018335463 0.05537697
000300 d7 81 10 bd cb 9b 1b 3d 9f 5d ea bc cb 49 87 3c
       -0.035280075 0.037990373 -0.028609095 0.01651468
000310 a8 fc 95 3d 5d ff a2 bc 75 0f f7 bc 5a 2a b3 3c
       0.07323581 -0.019897157 -0.030158738 0.02187078
000320 9f c1 0d bd bb 43 44 3d 6f 55 82 3d db a4 71 bd
       -0.03460848 0.047916155 0.063639514 -0.05899511
000330 1c 26 84 3d 61 c0 b4 3d 5f 4d dd 3c da 60 86 3d
       0.06452581 0.08825756 0.027014432 0.06561442
000340 a2 66 57 bb ad 2f 78 3c 65 b7 7f bd ab 2a 44 3d
       -0.003286757 0.015148086 -0.062430758 0.047892254
000350 8e 3c 36 3d 8d aa 44 3c 91 0d dd 3d cb 23 c9 bb
       0.044491343 0.012003553 0.10793603 -0.0061383
000360 e0 b5 bb 3c 5b 44 11 3d 73 c7 06 3d de ba 8f bd
       0.022913873 0.03546558 0.032905053 -0.07018064
000370 7f 86 4c 3d 94 7b 8a 3d cd 94 10 bc b1 8f 5a 3d
       0.049932953 0.06761852 -0.008824539 0.05335969
000380 10 92 12 bd bd 7c c6 3d d2 fb e2 bc 11 85 b5 bc
       -0.035783827 0.09691761 -0.027707968 -0.022158178
000390 89 43 96 bc 8d c4 eb 3d 1f ba 80 bd 8a e3 8d bc
       -0.01834275 0.115120985 -0.062855 -0.017320413
0003a0 8f ef 88 3d 84 01 5e 3d 12 a6 57 bd ad fc 4a 3d
       0.06686317 0.054200664 -0.05264861 0.049557377
0003b0 ea 2d 96 3d 1c 37 b9 bc 65 8c 77 3b 67 7a a1 bd
       0.07332976 -0.022609286 0.003777289 -0.078846745
0003c0 a1 c2 87 3d 63 e9 96 3d b0 0d ff 3c a6 79 06 bd
       0.066289194 0.07368734 0.031134456 -0.032830857
0003d0 22 3b ac 3d cf 40 df bd 24 fb 0a bd 76 d4 da 3d
       0.08409716 -0.10901033 -0.033930913 0.10685055
0003e0 84 f2 fc bc f3 61 fd bc ce 93 79 bd 2d 33 c7 bc
       -0.03087736 -0.030930495 -0.060931973 -0.024316395
0003f0 a4 90 a5 3b 66 c2 af 3d 2f 4b 9e bc c5 5c 88 3d
       0.005052643 0.085820004 -0.01932296 0.066583194

bias f4 [14]
000000 32 b4 87 3d 65 e2 a2 3d 8b 45 d6 bb c4 83 a5 3d
       0.066261664 0.079533376 -0.006539052 0.08081773
000010 1b 5b b7 3d 14 d7 ee 3c 73 b8 a7 3d 6c f0 28 3d
       0.08952924 0.029155292 0.08189478 0.04124491
000020 8e ae 85 3d 2d 7d 44 3d ad 7a ce 3b df 90 41 3d
       0.06527434 0.04797094 0.006301245 0.0472573
000030 40 b7 a5 3d 80 3d 49 3d
       0.08091593 0.049130917

weight f4 [2, 14]
000000 01 c6 ec 3e 6b 1d b2 3e 17 10 92 3d e1 0d d0 3e
       0.46244815 0.3478807 0.07131975 0.4063559
000010 29 9f 94 3e 0f 64 d6 3e 79 cc e0 bd 8e 9e 8a be
       0.2902768 0.41873214 -0.109765 -0.27074093
000020 f6 42 de 3e 90 71 a5 3e b2 3d ab bc 13 5b 9b 3e
       0.43410462 0.32313204 -0.020903442 0.30342922
000030 8e 04 17 3e 9a ce c0 be 38 5f 4d be 3f c3 bd be
       0.14747831 -0.37657624 -0.20055854 -0.37063023
000040 5d 17 e0 3c 74 ba b8 be 71 a9 85 be ad f1 b8 be
       0.02735489 -0.36079752 -0.26105836 -0.36121884
000050 1b 19 d2 3e c5 8c 7d 3e d2 7a 7e bd 88 c4 f7 be
       0.4103478 0.2476073 -0.06212885 -0.4839213
000060 d5 73 45 3e 25 39 a1 be 41 0a d6 be 6f 09 27 3d
       0.19282468 -0.3148891 -0.41804698 0.04078048

bias f4 [2]
000000 a7 5d 4a 3e 33 6e 18 be
       0.19762288 -0.14885788
