assets/models/example_model_OneHot_iter20.pt (torch, 112385 bytes, 10 tensors)

weight f4 [37]
0	0x3f255ed9	0.6459785
1	0x3f66e102	0.90187085
2	0x3f581158	0.84401464
3	0x3f5a3b80	0.8524704
4	0x3f3398c0	0.70154953
5	0x3f160ca6	0.5861305
6	0x3f271b9b	0.652765
7	0x3f57fcdd	0.84370214
8	0x3f5c10b1	0.8596297
9	0x3f3f7e75	0.74802333
10	0x3f4c185a	0.7972466
11	0x3f3ec905	0.7452548
12	0x3f58cc28	0.8468652
13	0x3f4872bc	0.7830007
14	0x3f3b1e54	0.7309315
15	0x3f4118fb	0.7542874
16	0x3f3346ea	0.7003008
17	0x3f31c0cf	0.6943483
18	0x3f3511ec	0.7073047
19	0x3f4fbc81	0.8114701
20	0x3f435225	0.7629722
21	0x3f356c51	0.708684
22	0x3ec6f581	0.3885918
23	0x3f8debc1	1.1087571
24	0x3f8a6e55	1.0814921
25	0x3f6cab95	0.92449313
26	0x3f88397c	1.0642543
27	0x3f7ba613	0.98300284
28	0x3f8cc350	1.0997105
29	0x3f7bcafe	0.98356616
30	0x3f7b2fed	0.98120004
31	0x3f811c8b	1.0086836
32	0x3f781dbd	0.96920377
33	0x3f7fdd45	0.99947006
34	0x3f7f3f03	0.99705523
35	0x3f5ac202	0.8545228
36	0x3f6d8ffd	0.92797834

bias f4 [37]
0	0x3cc7b9e0	0.024380624
1	0x3dbd3e41	0.092403896
2	0x3d20e136	0.039277278
3	0x3cf8fcbf	0.030393956
4	0x3d945853	0.07243409
5	0x3d2756b2	0.040854163
6	0xbd6e7a35	-0.058222014
7	0x3c344554	0.011002857
8	0xbd8730ab	-0.066010796
9	0x3d578349	0.052615438
10	0xbd55cf73	-0.052199792
11	0xbd42d69d	-0.047567952
12	0x3d1f118d	0.038835097
13	0x3d799897	0.060936537
14	0x3d782264	0.060579672
15	0x3cac5e87	0.021041168
16	0x3d7dccc6	0.061962865
17	0x3c66e58f	0.014092817
18	0x3db29706	0.08720212
19	0x3b1cb95a	0.002391419
20	0xbd39e0d9	-0.045380447
21	0x3d319fa2	0.04336513
22	0x3d03c7f4	0.032173112
23	0x3b1180c9	0.0022202006
24	0xbcbfbf20	-0.023406565
25	0xbc864888	-0.016392007
26	0x3cc2d578	0.02378343
27	0xbc803373	-0.015649533
28	0x3d267632	0.040640064
29	0xbdd17f3f	-0.102293484
30	0x3d3d5bba	0.046230055
31	0x3d4ab946	0.049493097
32	0x3d44b05d	0.048019756
33	0xbc00079c	-0.007814314
34	0xbc8580e6	-0.016296815
35	0x3cdc98eb	0.026928386
36	0xbd94216c	-0.07232937

running_mean f4 [37]
0	0x1b9b3405	2.5676216e-22
1	0x1c08ebbb	4.53033e-22
2	0x1bf34ec5	4.0251881e-22
3	0x1c141204	4.8992377e-22
4	0x1b8c443c	2.3205153e-22
5	0x1af57ead	1.0153428e-22
6	0x1ba07e93	2.6551576e-22
7	0x1b03d1fa	1.0903913e-22
8	0x1b9b9cae	2.574385e-22
9	0x1bd8f348	3.589142e-22
10	0x1b9b1f40	2.5662794e-22
11	0x1b8fe5b2	2.3805803e-22
12	0x1c08ddf5	4.52855e-22
13	0x1beb63f6	3.8942087e-22
14	0x1bd12997	3.4603026e-22
15	0x1be60ba3	3.8057828e-22
16	0x1ba63d36	2.7501953e-22
17	0x1b7521e2	2.0276873e-22
18	0x1bcc84ca	3.3834782e-22
19	0x1b7cdae5	2.091568e-22
20	0x1bdc8a5c	3.648536e-22
21	0x1b9191f5	2.408256e-22
22	0x3f7ffffc	0.99999976
23	0x3ecb4eee	0.39708656
24	0x403a6ce0	2.9128952
25	0x3f966089	1.174821
26	0x3f92d36e	1.1470773
27	0x3e942acd	0.28938904
28	0x40f61bf0	7.6909103
29	0x40e70d9b	7.220411
30	0x3ec7320c	0.3890537
31	0x40aa9c10	5.3315506
32	0x3f0df197	0.5544676
33	0x419a400b	19.281271
34	0x41c3d0c1	24.47693
35	0x431dccb6	157.79965
36	0x3d48244e	0.048862748

running_var f4 [37]
0	0x1b953676	2.4685177e-22
1	0x1bfeff1f	4.2185643e-22
2	0x1be471a7	3.7792882e-22
3	0x1c092c61	4.5386856e-22
4	0x1b876592	2.2399515e-22
5	0x1af1d545	1.0001982e-22
6	0x1b9a1490	2.549045e-22
7	0x1b01a0e7	1.072262e-22
8	0x1b95a129	2.475413e-22
9	0x1bcd4b5d	3.3963107e-22
10	0x1b95039f	2.4652322e-22
11	0x1b8aca37	2.2960863e-22
12	0x1bfedd2d	4.2163707e-22
13	0x1bdd9292	3.6656102e-22
14	0x1bc6487c	3.2803194e-22
15	0x1bd8e033	3.5879088e-22
16	0x1b9f3983	2.634151e-22
17	0x1b6d392a	1.9622651e-22
18	0x1bc1e9a6	3.2080163e-22
19	0x1b74dc5a	2.0254406e-22
20	0x1bd07176	3.4484036e-22
21	0x1b8c5e90	2.3222167e-22
22	0x21de6964	1.5071202e-18
23	0x40159d69	2.3377326
24	0x409a5c32	4.8237543
25	0x400753f4	2.114499
26	0x40beaf5c	5.958906
27	0x4077aa0c	3.8697538
28	0x418d1876	17.636944
29	0x41bdecc8	23.740616
30	0x3fdee66e	1.7414072
31	0x41848a21	16.567446
32	0x402f2465	2.7365963
33	0x44c96816	1611.2527
34	0x440644eb	537.07684
35	0x44c8d4bb	1606.6478
36	0x3fd81843	1.6882404

weight f4 [512, 37]
0	0xbcb6615d	-0.022263223
1	0x3c66df10	0.014091268
2	0xbc81dbd7	-0.015851898
3	0xbcbd3d67	-0.023100568
4	0x3c27b1e4	0.0102352835
5	0xbc27577a	-0.010213727
6	0x3c893739	0.016749965
7	0x3d1f3d40	0.038876772
8	0xbd1fd940	-0.039025545
9	0xbd3fc58f	-0.046819266
10	0xbc2c3a1d	-0.010511902
11	0x3d105b24	0.03524317
12	0x3b382d47	0.002810316
13	0x3c8c0e6e	0.017096724
14	0x3c9809b1	0.018559309
15	0xbc8b7518	-0.017023608
16	0x3c318de7	0.010837055
17	0xbb94f730	-0.0045460686
18	0x3be1146e	0.0068688905
19	0xbc45c765	-0.012071465
20	0x3c6f051b	0.01458862
21	0x3d0edb19	0.034876917
22	0x3b15f4a5	0.0022881415
23	0xbca2ea76	-0.01988719
24	0xbd297bcf	-0.04137784
25	0xbc9fd3b9	-0.019510137
26	0x3d8cb87b	0.06871124
27	0xbbc67a85	-0.006057086
28	0x3d41b2b2	0.047289558
29	0xbd48a002	-0.04898072
30	0x3cc776f3	0.024348712
31	0x3af31e4f	0.0018548461
32	0xbd58283d	-0.05277275
33	0xbd57b5a9	-0.05266348
34	0x3ce3fbcb	0.027830025
35	0x3c4bf024	0.012447391
36	0x3bef20f6	0.0072976304
37	0x3a0179a9	0.0004939088
38	0x3cfe5f87	0.03105141
39	0x3aa4302f	0.0012526567
40	0x3c9ee553	0.01939646
41	0xbcabeda9	-0.020987349
42	0x3c91532a	0.017739851
43	0x3d06a5a0	0.032872796
44	0x3d27f9b1	0.04100961
45	0x3db163a6	0.086615846
46	0xbd59de72	-0.053190656
47	0x3ba413e4	0.005007254
48	0x3cf31f8b	0.029678127
49	0xbcf27698	-0.029597566
50	0x3d464b78	0.048411816
51	0x3d1ec313	0.038760256
52	0xbcecb59d	-0.028895194
53	0xbcbb7b3a	-0.022885907
54	0x3c30d73d	0.010793504
55	0xbd09f5c6	-0.033681653
56	0x3c4da760	0.012552112
57	0x3da43af4	0.08019057
58	0xb99ff41f	-0.00030508728
59	0x3bf89324	0.0075859
60	0x3ca6d8a8	0.020366982
61	0x3d43aab0	0.047770202
62	0xbc01e11d	-0.007927206
63	0xbcb41f2f	-0.021987526
64	0xbcf5372c	-0.029933535
65	0x3c133a20	0.008986026
66	0xbd688c39	-0.05677435
67	0x3d99157f	0.07474803
68	0x3c3940b1	0.011306928
69	0xbd497260	-0.049181342
70	0x3d67ba2a	0.056574024
71	0xbd1d6a46	-0.03843143
72	0x3b958ebd	0.004564135
73	0xbabd6481	-0.0014449508
74	0x3cb97c26	0.022642206
75	0xbd05bc79	-0.032650445
76	0x3d75178a	0.0598369
77	0x3d817c3b	0.06322523
78	0x3db33241	0.087498195
79	0x3d1f77d9	0.038932655
80	0xbb4d8a52	-0.0031362963
81	0x3d91c63c	0.07117888
82	0xbd6e5a24	-0.058191434
83	0x3d5471e6	0.051866435
84	0xbd0d8b63	-0.034556758
85	0x3d90b192	0.07065119
86	0x3c5337a5	0.012891685
87	0x3c50d77f	0.012746691
88	0xbca14cd4	-0.019689955
89	0x3d1fe4e3	0.039036643
90	0x3d8da220	0.069156885
91	0xbcd52a57	-0.026021166
92	0x3d8bdbee	0.06829058
93	0x3d08323c	0.033251032
94	0xbd3d7a0a	-0.046258964
95	0x3d884a76	0.06654827
96	0x3d24026e	0.04004138
97	0xbd8107ac	-0.063002914
98	0x3d02c029	0.03192154
99	0x3d643bf9	0.055721257
100	0xbda83ece	-0.08215104
101	0xbd85e0eb	-0.0653704
102	0xbcd36fb4	-0.0258101
103	0xbd79c47b	-0.060978394
104	0xbdc32512	-0.09528555
105	0x3d8b98fe	0.0681629
106	0x3d31d8c3	0.04341961
107	0xbc94bed7	-0.018157406
108	0x3dfbd376	0.12296192
109	0xbd1cc693	-0.038275313
110	0xbb413aad	-0.0029484436
111	0xbbd3de9a	-0.006465745
112	0xbd28d530	-0.041218936
113	0xbd84b535	-0.06479875
114	0x3be89aa9	0.007098515
115	0x3cb69164	0.022286125
116	0xbcfd6056	-0.030929726
117	0xbc42ad7b	-0.011882181
118	0xbb81b543	-0.0039583757
119	0x3b804baa	0.00391527
120	0xbbd4c26d	-0.006492904
121	0x3d656ef3	0.056014013
122	0x3d597a3b	0.053095084
123	0x3c1bfefa	0.00952124
124	0xbc1e91f5	-0.009678354
125	0x3d3ea5db	0.04654489
126	0xbd3cf338	-0.04613039
127	0xbcb4ad56	-0.02205531
128	0x3d684209	0.0567036
129	0xbb18dd02	-0.002332509
130	0x3cf99ac7	0.030469311
131	0xbb41add1	-0.0029553066
132	0xbc60a2a1	-0.013710649
133	0xbbe098a2	-0.0068541327
134	0xbd5df33d	-0.05418705
135	0x3da5540d	0.08072672
136	0x3c5c6692	0.013452189
137	0x3dd58f03	0.10427668
138	0xbd06b567	-0.032887843
139	0xbd5eceaf	-0.054396328
140	0x3c89b513	0.016809976
141	0x3cc11bff	0.02357292
142	0x3ccea329	0.025224285
143	0x3b9d4164	0.004799055
144	0xbc83f8f7	-0.016109927
145	0x3cea023f	0.028565524
146	0x3d1af0f1	0.037827436
147	0x3c34f26a	0.011044124
148	0x3cfef4c1	0.031122567
149	0xbd741616	-0.059591375
150	0x3d414637	0.047186103
151	0xbce85f09	-0.028365629
152	0x3d105a22	0.035242207
153	0xbb1e51b8	-0.0024157595
154	0x3d826c4a	0.06368311
155	0x3da9923c	0.08279845
156	0xbd6bccc6	-0.057568334
157	0x3d8be3a4	0.068305284
158	0xbdaa2db0	-0.083094954
159	0xbd815ac4	-0.0631614
160	0x3d9732ba	0.07382722
161	0xb955e696	-0.00020399163
162	0x3cf46779	0.029834496
163	0x3d97a130	0.07403791
164	0x3da85903	0.08220103
165	0x3cec79fd	0.028866762
166	0x3d713b94	0.05889471
167	0xbd011a87	-0.03151944
168	0x3c77b523	0.01511887
169	0x3cb98a41	0.022648932
170	0x3c8a7ff7	0.016906722
171	0xbe20a289	-0.15687002
172	0xbcfbb499	-0.030725764
173	0x3c911e56	0.01771466
174	0xbcd21c06	-0.025648128
175	0xbd97fe7e	-0.074215874
176	0xbcd4f57e	-0.025995966
177	0xbd3e1ca8	-0.046414047
178	0x3dc3f365	0.09567908
179	0x3d3bb905	0.045830745
180	0xbd58cdf5	-0.05293079
181	0x3d6e0027	0.058105614
182	0x3df5778b	0.11985692
183	0x3d19982d	0.03749864
184	0xbb1db370	-0.0024063252
185	0xbc38d91f	-0.011282234
186	0x3c1ddf68	0.009635784
187	0x3c245008	0.010028847
188	0x3d488330	0.048953235
189	0x3c619e53	0.013770658
190	0x3d533f8e	0.051574282
191	0xbd1f0b5f	-0.038829204
192	0xbd03bd8d	-0.03216319
193	0x3c7f608f	0.015586986
194	0xbca5e1c1	-0.02024925
195	0x3d8e51c2	0.06949188
196	0x3d905ed6	0.070493385
197	0xbd5e6470	-0.054295003
198	0x3d9a0f36	0.075224325
199	0x3d723454	0.059131935
200	0x3d1733d9	0.03691468
201	0xbd058d46	-0.032605432
202	0x3aa17cfb	0.0012320572
203	0xbd18d7ad	-0.03731506
204	0x3caad6c0	0.020854354
205	0x3d1bcd6e	0.03803771
206	0xbe130e54	-0.14360934
207	0xbcdc53d8	-0.026895449
208	0x3cea782b	0.028621754
209	0xbd9c8d46	-0.07644133
210	0xbd41f1af	-0.047349628
211	0xbd608fa9	-0.054824505
212	0x3dd51938	0.10405201
213	0xbdcb95b3	-0.09940662
214	0x3dcd514e	0.10025273
215	0xbd60d944	-0.0548947
216	0xbcf17754	-0.029475845
217	0x3db40fd6	0.08792083
218	0x3dbc7fdb	0.09204074
219	0xbdfc32e7	-0.12314396
220	0xbc167762	-0.0091837365
221	0x3be4a410	0.0069775656
222	0xbd37b4ba	-0.04485009
223	0xbc728efc	-0.014804598
224	0xbc9dcaf2	-0.01926181
225	0xbd005a93	-0.03133638
226	0xbd3a33bc	-0.045459494
227	0xbd0c0e28	-0.034193188
228	0x3d347d84	0.044065014
229	0xbcdfe216	-0.027329486
230	0x3d5bca12	0.053659506
231	0xbc4a7872	-0.012357818
232	0x3d0f4b61	0.034983996
233	0x3d1d9788	0.03847459
234	0xbc680df9	-0.014163488
235	0xbd607692	-0.054800577
236	0xbbea29b6	-0.0071460856
237	0xbd166ba7	-0.03672376
238	0xbbf0093b	-0.007325319
239	0xbcd4c8bc	-0.025974624
240	0xbd394be3	-0.045238387
241	0x3c6d0236	0.014465859
242	0x3c9368a4	0.017994232
243	0xbd4c3e1d	-0.049863923
244	0xbd5b2e00	-0.053510666
245	0x3c6d2618	0.014474414
246	0xbdcca84f	-0.0999304
247	0x3c668a79	0.0140711
248	0xbdde4483	-0.10852911
249	0x3d49e276	0.049288236
250	0xbd3d159a	-0.04616318
251	0xbdcf77d8	-0.1013028
252	0x3c0993c4	0.0083970465
253	0xbc48fe26	-0.012267625
254	0xbda687d5	-0.08131377
255	0x3db62176	0.08893101

bias f4 [512]
0	0x3d148f38	0.036269397
1	0x3c2d6f69	0.010585644
2	0xbc8d74f7	-0.017267687
3	0xbd132bb6	-0.035930358
4	0xbc3f6dc7	-0.011683888
5	0xbd1003b4	-0.03515978
6	0xbd061670	-0.03273624
7	0xbd3ceb1e	-0.046122663
8	0x3c86d142	0.016457204
9	0x3d3c5559	0.04597983
10	0x3dfbd453	0.12296357
11	0x3cc40d90	0.023932248
12	0xbc9a081a	-0.018802691
13	0xbc789f61	-0.015174718
14	0xbbd3d96d	-0.006465128
15	0xbb94505c	-0.004526181
16	0x3cf0489d	0.0293315
17	0x3dd72324	0.105047494
18	0xbd84b8e0	-0.064805746
19	0x3c88a953	0.016682303
20	0x3cf2ea67	0.029652787
21	0xbd524b75	-0.051341493
22	0x3ca828c6	0.020527255
23	0x3d8a6dae	0.06759201
24	0xbb501260	-0.0031749234
25	0x3d3387db	0.043830734
26	0x3dcd7703	0.10032465
27	0xbd954385	-0.07288269
28	0x3ca5ba11	0.020230325
29	0x3d3cff92	0.04614217
30	0x3d53a0ba	0.051666953
31	0x3c8ed78e	0.017436769
32	0x3ce1104b	0.02747359
33	0xbcb48851	-0.022037657
34	0xbcc74124	-0.024323054
35	0xb99ba6f0	-0.00029688282
36	0x3c3ee0d5	0.011650284
37	0xbbae95e5	-0.0053279274
38	0x3d06de47	0.032926824
39	0xbcf88fb9	-0.03034197
40	0xbc7e151b	-0.015507962
41	0x3d4a0139	0.049317572
42	0x3d28beae	0.04119747
43	0x3d85944c	0.06522426
44	0x3d207bbc	0.039180502
45	0x3c9a4cc7	0.018835438
46	0x3d7e6c1c	0.06211482
47	0x3d95065a	0.07276602
48	0x3d5774d7	0.05260166
49	0x3cbb293a	0.022846807
50	0xbcaf9639	-0.021433936
51	0x3cb07d7a	0.021544207
52	0xbcf29e10	-0.029616386
53	0x3b7443c1	0.003727183
54	0x3d0fd554	0.035115555
55	0x3d365868	0.044517905
56	0xbce07d1c	-0.027403407
57	0x3ccc3949	0.02492966
58	0x3c45e3fb	0.012078281
59	0xbd31cc0d	-0.04340749
60	0x3bd4f89f	0.0064993645
61	0x3cba4cb9	0.022741662
62	0xbbb02442	-0.005375416
63	0x3d513351	0.05107433
64	0xbd348801	-0.044075016
65	0x3d68768d	0.056753684
66	0x3d1248a0	0.03571379
67	0x3d09f6f7	0.03368279
68	0x3c5055c0	0.012715757
69	0x3ca2eabf	0.019887326
70	0x3b61327d	0.0034362369
71	0x3d1f3fc9	0.03887919
72	0x3c9e5285	0.019326458
73	0x3ce9594b	0.028484961
74	0xbce7786a	-0.02825566
75	0x3c815fd7	0.01579277
76	0x3d4730fe	0.048630707
77	0xbc09cf7d	-0.0084112855
78	0x3dcd8915	0.10035912
79	0x3d4545ec	0.048162386
80	0x3b84ffe7	0.0040588262
81	0x3e198fac	0.14996213
82	0x395385ea	0.00020172415
83	0x3d020deb	0.031751554
84	0xbd745b37	-0.0596573
85	0x3d84e6b7	0.06489318
86	0x3bb708c5	0.005585762
87	0xbc48aa14	-0.012247581
88	0x3ca7612e	0.020432081
89	0xbca0aa68	-0.019612506
90	0x3a3043a9	0.00067239493
91	0xbb2f64ad	-0.0026762888
92	0x3d2ed711	0.042685572
93	0xbbdd481c	-0.006752981
94	0xbbf290fc	-0.0074025374
95	0x3d2c1023	0.042007577
96	0x3c0f29aa	0.008737961
97	0xbd2835c8	-0.041066915
98	0x3d2729a7	0.040811207
99	0xbd7e9c35	-0.06216069
100	0xbca18b98	-0.019719884
101	0x3d63b74d	0.05559473
102	0xbdd0629e	-0.1017506
103	0xbd0a0b56	-0.033702217
104	0xbc7015c0	-0.014653623
105	0xbd2e0094	-0.04248102
106	0xbde159ce	-0.11003457
107	0x3cce75e7	0.025202705
108	0x3b07413e	0.0020638253
109	0xbd02dc44	-0.031948343
110	0xbd26d36f	-0.040728983
111	0x3d26766f	0.04064029
112	0x3bf572c7	0.007490489
113	0x3da189ce	0.07887612
114	0x3d1e14b1	0.03859395
115	0x3dc8bd8f	0.098017804
116	0xbc099e1a	-0.008399511
117	0x3d49bb93	0.04925115
118	0x3d305300	0.043047905
119	0x3da95dda	0.08269854
120	0xbb8d046d	-0.004303506
121	0xbc73398c	-0.014845263
122	0x3bc526f1	0.006016605
123	0xbd55f815	-0.052238543
124	0x3a95ec5c	0.0011438238
125	0x3cbad12b	0.022804817
126	0xbd229963	-0.039697062
127	0x3bbf63d7	0.0058407593
128	0xbd1bdbc2	-0.038051374
129	0x3d450eb6	0.048109733
130	0xbd215a4e	-0.039392762
131	0x3d37860c	0.04480557
132	0x3da5165a	0.08060904
133	0xbd32871b	-0.043585878
134	0x3cb66519	0.022265004
135	0xbd299426	-0.04140105
136	0x3cee11e2	0.029061262
137	0x3d0febe4	0.035137072
138	0x3d27a205	0.040926
139	0xbb4341cf	-0.0029793864
140	0x3d560270	0.05224842
141	0x3dd42ca9	0.10360081
142	0x3d07f1bc	0.03318952
143	0xbc332779	-0.010934704
144	0x3ceb56ab	0.02872785
145	0x3c6e130f	0.014530911
146	0xbb77a711	-0.0037788788
147	0xbd2d9398	-0.042377084
148	0x3d28fabc	0.041254744
149	0x3e13c9f3	0.14432506
150	0x3c8a21a0	0.016861737
151	0xbc96c574	-0.0184047
152	0x3ca07bf4	0.019590355
153	0xbc340d0a	-0.010989437
154	0xbd417c6e	-0.047237806
155	0x3ccba6e6	0.024859857
156	0x3dd818da	0.10551615
157	0xbc966adf	-0.018361507
158	0x3cdecbcc	0.027196787
159	0xbd684811	-0.056709353
160	0x3d0b76a2	0.034048684
161	0x3cea3689	0.028590458
162	0xbd1c03f0	-0.038089693
163	0xbd0ba24a	-0.034090318
164	0xbcdcf152	-0.02697054
165	0xbaab62e1	-0.0013075733
166	0x3deda751	0.11604179
167	0x3db03ea9	0.086057015
168	0xbc99faa1	-0.018796267
169	0x3c3d4610	0.011552349
170	0x3cb6f57d	0.022333855
171	0x3dae3e7c	0.08508012
172	0xbd8eb5cc	-0.06968269
173	0x3c0e0d2f	0.008670135
174	0x3cab29ee	0.020894017
175	0x39e9e792	0.00044613756
176	0xbd154b2d	-0.036448646
177	0xbc0955a1	-0.008382232
178	0x3d9150e4	0.07095507
179	0xbd1fcc91	-0.03901345
180	0xbc050a7c	-0.008120175
181	0x3c29b128	0.010357179
182	0xbd05758d	-0.03258281
183	0x3db13740	0.08653116
184	0xbc3fd069	-0.011707404
185	0xbd3a295f	-0.04544961
186	0x3ccb165c	0.024790935
187	0x3ba09c89	0.004901473
188	0xbc76f59c	-0.015073206
189	0x3dba7e75	0.09106151
190	0x3d85bcdf	0.06530165
191	0xbcc149fd	-0.02359485
192	0x3d260e68	0.040541083
193	0x3d211b56	0.03933271
194	0xbd5c312f	-0.053757843
195	0x3c025610	0.007955089
196	0x3da5a87f	0.08088779
197	0x3bed692c	0.0072452035
198	0x3d8e5a6c	0.0695084
199	0xbd347341	-0.044055227
200	0xbc0440a0	-0.008072048
201	0x3dc08cc6	0.094018504
202	0x3d5ef0c6	0.05442884
203	0xbc3be88e	-0.01146902
204	0xbccc83eb	-0.024965247
205	0x3d2ce6b2	0.042212196
206	0x3c267c9d	0.010161546
207	0x3e0182d1	0.12647559
208	0xbcf4a61b	-0.029864362
209	0xbb8acb8e	-0.0042356914
210	0xbd538574	-0.051640943
211	0x3d7592bf	0.0599544
212	0x3cf76a14	0.03020195
213	0x3ca0a8a0	0.019611657
214	0x3db597e7	0.08866864
215	0x3cbdf7cb	0.023189446
216	0x3b4a7fe6	0.0030898987
217	0x3c186bb4	0.009303022
218	0x3c548a1c	0.012972381
219	0xbd1f628a	-0.038912334
220	0x3d17fbfb	0.03710554
221	0xbc90022b	-0.017579159
222	0x3c2f99a8	0.010717787
223	0x3d8966a8	0.06709033
224	0xbd2cd517	-0.042195406
225	0xbc939e50	-0.018019825
226	0xbc92c3e7	-0.01791568
227	0x3bb81fbf	0.005619019
228	0x3be2be07	0.0069196257
229	0x3d79c436	0.060978137
230	0xbd4ff723	-0.050772797
231	0xbd1bc6e3	-0.03803147
232	0x3d3c755b	0.046010356
233	0x3ce96ea4	0.02849514
234	0xbd42387f	-0.04741716
235	0x3db90f2f	0.09036099
236	0x3d1a67e0	0.03769672
237	0x3c603fd8	0.013687097
238	0xbc7bf01c	-0.015377071
239	0xbda7920c	-0.08182153
240	0xbb8996fa	-0.004198906
241	0xbd49dd4b	-0.049283307
242	0x3d4c3695	0.04985674
243	0xbbf69434	-0.0075249914
244	0xb9a83f16	-0.0003209046
245	0xbdc2196e	-0.094775066
246	0xbc7d546c	-0.015462022
247	0x3c886d75	0.016653756
248	0xbc28f197	-0.010311506
249	0xbd52d78d	-0.051475096
250	0xbce89963	-0.028393453
251	0x3d425d4d	0.04745226
252	0x3d061bc6	0.03274133
253	0xbcae1452	-0.021249924
254	0x3c24a5e1	0.010049314
255	0x3d1e4cf6	0.038647614

weight f4 [14, 512]
0	0xbc846b15	-0.016164342
1	0xbc3991d4	-0.011326272
2	0x3da7ff0c	0.08202943
3	0xbc6ca534	-0.014443684
4	0x3dba3467	0.09092026
5	0x3dbcbae4	0.09215334
6	0xbda7f600	-0.08201218
7	0xbc4b20bf	-0.012397944
8	0xbd4a3f55	-0.049376804
9	0x3d9ee897	0.07759207
10	0x3d9736a9	0.073834725
11	0xbd05e93d	-0.032693136
12	0xbd63635d	-0.055514682
13	0x3c01d19f	0.007923513
14	0x3bc72e71	0.0060785343
15	0xbd28da85	-0.04122402
16	0xbcd377c0	-0.025813937
17	0x3da0a370	0.07843673
18	0xbd55c44b	-0.052189153
19	0xbd1304ac	-0.035893127
20	0xbb871eaa	-0.0041235285
21	0xbd65bc16	-0.056087576
22	0x3d9d9bd4	0.076957375
23	0x3da12569	0.078684635
24	0xbd8464cf	-0.0646454
25	0x3de64035	0.11242715
26	0x3d9ae02e	0.0756229
27	0xbdfb991f	-0.12285065
28	0xbc5a3e34	-0.013320494
29	0x3db6aa3a	0.08919187
30	0x3daf96a6	0.08573656
31	0x3d6d67bd	0.05796026
32	0xbb899c69	-0.0041995537
33	0xbc2b0b0f	-0.010439648
34	0x3de94948	0.113909304
35	0x3d96a658	0.07355946
36	0x3e3246c2	0.17409804
37	0x3d5ec981	0.054391388
38	0xbd510402	-0.051029213
39	0xbd2bcccb	-0.041943353
40	0x3ca57fe2	0.02020258
41	0xbbe58647	-0.0070045325
42	0x3db3ebea	0.087852314
43	0x3d39105d	0.04518162
44	0xbdb37526	-0.08762579
45	0xbd6ccba8	-0.05781141
46	0x3d99e347	0.07514053
47	0xbcd0ae5a	-0.025473762
48	0x3d58e541	0.05295301
49	0xbcff045f	-0.031130014
50	0x3e70baa1	0.23508693
51	0x3d400a0b	0.046884578
52	0x3dab57ae	0.08366333
53	0xbd20de6e	-0.039274625
54	0x3bdce78d	0.00674147
55	0x3d8f7160	0.070040464
56	0x3d92477b	0.0714254
57	0xbcafb8f3	-0.021450495
58	0x3de3c2a5	0.1112111
59	0xbcbcc1ee	-0.023041692
60	0xbd8ca10a	-0.06866653
61	0x3cd8d3f2	0.02646825
62	0xbd2535b5	-0.040334422
63	0x3d8ff550	0.070292115
64	0xbd11bb68	-0.035579115
65	0x3da8b1f0	0.08237064
66	0xbd2e1238	-0.042497844
67	0x3da26cf2	0.07930936
68	0x3d00dd53	0.03146107
69	0xbb8bb318	-0.004263293
70	0x3d6492f9	0.055804227
71	0x3d69c98e	0.057076983
72	0x3d6a1521	0.057149056
73	0x3d38a038	0.04507467
74	0x3b348e34	0.002755058
75	0x3dad5ce0	0.0846498
76	0x3dd53ff8	0.10412592
77	0x3df75c0e	0.12078105
78	0x3d6d713b	0.057969313
79	0x3d67a154	0.05655034
80	0xbc18e4ee	-0.009331925
81	0x3dc2f73b	0.09519812
82	0xbce19442	-0.027536515
83	0x3cdf651a	0.027269889
84	0x3ddb41ec	0.10705933
85	0xbd6cbf65	-0.057799716
86	0x3db7e152	0.08978523
87	0x3dae4643	0.08509495
88	0xbcdeecf9	-0.027212607
89	0xbd985243	-0.07437565
90	0x3b9ecd29	0.0048462343
91	0x3dfd4432	0.12366523
92	0xbd0609a7	-0.03272405
93	0x3d371504	0.044697776
94	0x3d580d50	0.05274707
95	0x3d5a8144	0.053345934
96	0x3c3889ba	0.011263305
97	0xbd949c06	-0.072563216
98	0x3dc4a1f2	0.09601201
99	0xbdabccd1	-0.08388675
100	0xbd0c5286	-0.034258388
101	0x3d9edf4f	0.077574365
102	0xbd2b5928	-0.041833073
103	0xbdb56919	-0.088579364
104	0xbd564954	-0.052316025
105	0xbd1ff1fa	-0.039049126
106	0x3e8588de	0.26080984
107	0xbcea3845	-0.028591285
108	0xbd275adc	-0.040858135
109	0xbddcc7f2	-0.10780324
110	0xbd96b871	-0.07359398
111	0xbd3dacc1	-0.04630733
112	0xbd2b7c41	-0.041866545
113	0x3da61597	0.08109587
114	0xbc839bf6	-0.016065579
115	0x3d9a5f82	0.07537748
116	0x3d556efa	0.05210779
117	0x3dfd1e65	0.12359313
118	0x3c8451d7	0.016152306
119	0x3d779a0a	0.060449637
120	0x3e04eb3e	0.12980363
121	0x3dba9606	0.09110646
122	0x3c5271fb	0.012844558
123	0xbda9b0e8	-0.08285695
124	0xbd137101	-0.03599644
125	0x3d8ca2a5	0.068669595
126	0x3db16a31	0.086628325
127	0x3da61fbb	0.08111521
128	0xbc4a3a2b	-0.01234297
129	0x3dd62ec9	0.10458142
130	0xbd6100df	-0.05493247
131	0xbd5ef2e2	-0.05443085
132	0x3db59e05	0.088680305
133	0xbcdacc35	-0.026708702
134	0xbbd4392b	-0.0064765415
135	0xbd0894d8	-0.033345073
136	0x3d9d5482	0.07682134
137	0x3da21ec4	0.07916024
138	0x3da128c7	0.07869106
139	0xbc8de525	-0.017321179
140	0x3dcde442	0.10053302
141	0x3dad4f48	0.08462387
142	0x3cceb27b	0.02523159
143	0xbce96056	-0.02848832
144	0xbd737eef	-0.059447225
145	0xbca08518	-0.019594714
146	0xbd13822b	-0.03601281
147	0x3d962d8c	0.07332906
148	0x3d9e5934	0.07731858
149	0x3db60cfb	0.088891946
150	0x3da7d00c	0.08193979
151	0xbd0f4e50	-0.034986794
152	0xbb9034c5	-0.004400822
153	0x3db0d1be	0.08633755
154	0xbd85cc69	-0.06533129
155	0x3dba3033	0.090912245
156	0x3d2cedab	0.042218845
157	0xbd45159a	-0.048116304
158	0x3cc9587a	0.024578322
159	0xbd84cde0	-0.0648458
160	0x3a3944e1	0.00070674537
161	0x3aa79d2e	0.0012787932
162	0xbc709c1e	-0.014685659
163	0x3d6903d5	0.05688842
164	0xbd42e6d9	-0.047583435
165	0xbd653279	-0.055956338
166	0x3d5e045e	0.054203384
167	0x3d56a30b	0.052401584
168	0x3da203e9	0.07910902
169	0x3ce7a4d3	0.028276836
170	0x3ce5be35	0.0280448
171	0x3d9c7501	0.07639504
172	0x3e09779f	0.13424538
173	0xbd87919b	-0.06619569
174	0x3d954def	0.07290255
175	0xbe072e72	-0.13201311
176	0x3e18c7c5	0.14919956
177	0xbd4abad4	-0.04949458
178	0x3e25216b	0.16126029
179	0xbdbade48	-0.09124428
180	0x3dcf6e56	0.10128467
181	0x3d9baee5	0.07601718
182	0xbbf8b3b0	-0.00758978
183	0x3da5f990	0.08104241
184	0x3ccb3ac0	0.024808288
185	0xbdab6d23	-0.083704256
186	0xbd93aff8	-0.07211298
187	0x3dd54b77	0.104147844
188	0xbcdfc69d	-0.027316386
189	0x3dbee570	0.093211055
190	0x3c8cc485	0.017183552
191	0x3d97b2b5	0.074071325
192	0xbd47dec3	-0.048796427
193	0x3d2caf70	0.042159498
194	0xbd17f596	-0.037099443
195	0x3c878087	0.016540779
196	0x3d8b7d61	0.068110235
197	0xbc840862	-0.016117278
198	0xbd0f414b	-0.034974378
199	0x3e189419	0.14900245
200	0xbd17d502	-0.037068374
201	0x3d670568	0.05640164
202	0x3dac8c34	0.08425179
203	0xbda9d4d8	-0.0829255
204	0x3dc6cb4c	0.097067446
205	0x3dc553c2	0.09635116
206	0x3d526f35	0.051375587
207	0x3d8ef360	0.06980014
208	0xbc87310e	-0.016502883
209	0x3d486bdd	0.04893099
210	0xbd52af8b	-0.051436942
211	0x3d70f409	0.05882648
212	0x3d496647	0.049169805
213	0x3c541834	0.012945224
214	0x3de2dc5d	0.11077187
215	0xbc973109	-0.018455999
216	0x3cabafc0	0.020957828
217	0x3d4876f8	0.048941582
218	0x3d4df166	0.050279044
219	0xbdb1a5a1	-0.08674169
220	0x3d6cc03e	0.057800524
221	0x3df3be2f	0.11901509
222	0x3b5c634d	0.0033628524
223	0x3d51b20c	0.05119519
224	0xbd14a7ae	-0.036292724
225	0x3dfe6d73	0.124232195
226	0xbcef452b	-0.029207787
227	0xbd046894	-0.032326296
228	0xbd0106af	-0.031500515
229	0x3e009682	0.12557414
230	0xbd577a18	-0.052606672
231	0x3b020df2	0.0019844738
232	0x3d9494f8	0.07254976
233	0x3ddde050	0.108338
234	0xbd8a0025	-0.06738309
235	0x3d4a9827	0.04946151
236	0x3ddc5f01	0.10760308
237	0xbc56c0c8	-0.013107486
238	0x3c264d11	0.01015021
239	0xbd9f3e88	-0.07775599
240	0x3dcddaca	0.10051496
241	0x3db85342	0.09000255
242	0x3d480d50	0.04884082
243	0xbd131ff6	-0.035919152
244	0x3dc2f14e	0.095186815
245	0xbdcb865f	-0.099377386
246	0xbcedebcf	-0.029043106
247	0x3e170f7f	0.14752005
248	0xbc8a1263	-0.01685447
249	0xbd29311b	-0.041306596
250	0xbdc91302	-0.098180786
251	0xbcd9de67	-0.026595308
252	0xbbd57fac	-0.006515464
253	0x3dc173b2	0.09445895
254	0xbd009f52	-0.03140194
255	0x3d92e9bb	0.07173487

bias f4 [14]
0	0x3d80c22f	0.062870376
1	0x3da3f5e4	0.08005884
2	0xbbd6458b	-0.006539052
3	0x3da7c879	0.08192534
4	0x3db12434	0.08649483
5	0x3cf66caa	0.030081112
6	0x3db29b83	0.08721068
7	0x3d3ea738	0.04654619
8	0x3d6dfb11	0.058100764
9	0x3d2beba8	0.041972786
10	0x3bda4cfa	0.0066620084
11	0x3d20e931	0.03928489
12	0x3da5431e	0.08069442
13	0x3d5ef991	0.054437224

weight f4 [2, 14]
0	0x3f0a4017	0.54004043
1	0x3ecfae0c	0.40562475
2	0x3d921017	0.07131975
3	0x3ef77923	0.48334607
4	0x3eb734ad	0.35782376
5	0x3eff7bde	0.4989919
6	0xbdf28811	-0.11842359
7	0xbe8f0bfd	-0.27938834
8	0x3ef46dc2	0.4773999
9	0x3eba3102	0.36365515
10	0xbcad86c6	-0.021182429
11	0x3ec2a431	0.38015893
12	0x3e59fb6b	0.21287315
13	0xbec543f6	-0.38528413
14	0xbe8e69dc	-0.2781514
15	0xbedb53f0	-0.42837477
16	0x3ce0175d	0.02735489
17	0xbee025c6	-0.4377882
18	0xbea83f04	-0.32860577
19	0xbee2098d	-0.44147912
20	0x3ed68805	0.4190065
21	0x3e8333d1	0.2562547
22	0xbdd7e8d1	-0.10542453
23	0xbf064203	-0.52444476
24	0x3e45bd06	0.19310388
25	0xbec88251	-0.39161924
26	0xbef785b7	-0.48344204
27	0x3d4ab466	0.049488448

bias f4 [2]
0	0x3e451ac5	0.19248493
1	0xbe132b57	-0.14372002
