assets/models/example_model.pt (torch, 64769 bytes, 10 tensors)

weight f4 [14]
000000 30 e7 8c 3f 05 ca 8c 3f 9c 7d 74 3f 26 b8 8d 3f
       1.1008053 1.0999151 0.95504165 1.1071823
000010 45 16 8e 3f 26 2b 8d 3f 36 99 70 3f 5e cd 84 3f
       1.1100546 1.1028793 0.9398378 1.0375173
000020 46 db 6e 3f 23 38 65 3f b0 c8 88 3f b3 a9 94 3f
       0.93303335 0.8953878 1.0686245 1.1614288
000030 e2 a0 91 3f 37 29 8b 3f
       1.1377223 1.0871953

bias f4 [14]
000000 0a e5 71 bd 46 02 9d bd bc 48 e6 bc 3b 5e 26 bd
       -0.05905632 -0.07666449 -0.028110854 -0.04061721
000010 69 10 a9 bd 2f b9 a0 bd 7e d4 26 bd 37 ac 3f bd
       -0.08255083 -0.07847821 -0.040729992 -0.046795096
000020 2d 5c ef bc 72 77 80 bd f8 54 5f bd a9 27 b5 bd
       -0.029218758 -0.062727824 -0.054524392 -0.08845455
000030 c7 0a 07 bd 98 72 9e bd
       -0.032969262 -0.07736701

running_mean f4 [14]
000000 60 b1 c3 3f f1 29 bc 3f 4b af 9e 3f 1c 3e 05 40
       1.5288506 1.47003 1.2397245 2.0819159
000010 72 82 5b 40 a1 0b 6d 40 d3 ec 7a 40 04 c9 53 40
       3.4298368 3.7038348 3.9207046 3.309144
000020 60 89 06 40 01 06 11 40 8f 3d 27 42 cf cb 2b 42
       2.1021347 2.2659914 41.810116 42.94903
000030 57 0e 26 42 df bd 74 42
       41.514004 61.18542

running_var f4 [14]
000000 e6 6f b9 40 03 4f be 40 72 bc 5c 40 10 11 67 41
       5.7949095 5.947145 3.4490018 14.441666
000010 50 d5 1a 42 46 3f 14 42 1d f0 17 42 a2 6a d3 41
       38.708313 37.06179 37.984486 26.427067
000020 98 07 5f 41 01 d9 75 41 fa 8a 7f 45 8a e8 68 45
       13.939354 15.365479 4088.686 3726.5337
000030 b1 e6 6a 45 cf 73 f7 45
       3758.4182 7918.476

weight f4 [512, 14]
000000 e0 d4 b9 bc de 1d a2 bc 43 a5 48 3c d8 7f 46 bd
       -0.022684515 -0.019789632 0.012246433 -0.048461765
000010 13 bf 06 3a d2 34 ba bc e2 79 b3 bb 9e 13 ca bb
       0.00051401666 -0.022730265 -0.005477176 -0.0061668893
000020 03 e8 dd b6 71 42 78 bc ff 2d fa bb 99 62 4d 3b
       -6.613323e-06 -0.01515256 -0.0076348777 0.0031339286
000030 a9 6c 8b bb 0d c2 2b bc f2 2b 9f bb f8 6a c8 bd
       -0.0042548967 -0.010483277 -0.0048575336 -0.09786028
000040 3b 5a 93 3d cb a5 fc bd 7f 25 ea bc b8 19 c9 bd
       0.071949445 -0.1233631 -0.028582333 -0.098193586
000050 10 9c df bb 81 df 99 3c 39 6b a7 3d ee d9 cb bd
       -0.006824024 0.018783333 0.08174748 -0.09953676
000060 55 d1 ae bb e1 f5 4a bd e2 09 b6 ba 7f f6 93 3c
       -0.005335013 -0.049550895 -0.0013888443 0.018061874
000070 d0 46 57 bd 8e 0d 1b bd 61 d6 04 3d 62 31 2e bc
       -0.052557766 -0.037854724 0.03243101 -0.010631891
000080 da f0 57 3c 65 5d 64 bd b2 1d 3f bd c3 b6 97 b9
       0.013179982 -0.05575313 -0.04665918 -0.00028937132
000090 52 6d 9c bc 3b 83 eb bc 3a 58 77 bc 09 cf 89 3c
       -0.019095097 -0.028749099 -0.015096718 0.016822355
0000a0 da a3 a3 bd 2b 05 ad 3c 6e a6 01 bd 24 80 88 bb
       -0.079902366 0.021120628 -0.03165286 -0.004165666
0000b0 47 0c 4e bc d0 33 3e bd 94 73 5a 3b 8d 81 3a bc
       -0.012576169 -0.04643613 0.003333305 -0.011383426
0000c0 50 ca 85 bc 12 6c 3a bb 7f c6 b6 3c a5 13 be bc
       -0.016331822 -0.0028445763 0.022311447 -0.023202727
0000d0 cb 54 75 bd fc 85 0d 3c 53 2f e7 bc 37 b6 1b bd
       -0.059895318 0.008637901 -0.028220808 -0.03801557
0000e0 64 af d6 3c 1d 78 c5 bc f9 de 59 3d ba 0e 12 bc
       0.02620668 -0.024105126 0.05319116 -0.008914644
0000f0 af af 10 bd b9 12 2b 3c 68 a5 df bb e8 49 b9 3c
       -0.035323795 0.010441476 -0.006825138 0.022618249
000100 4a ec 04 bc 82 bb 94 3b f0 a9 34 3d ed c5 37 bd
       -0.008112976 0.0045389542 0.044107378 -0.04486649
000110 7a 05 a1 3d 20 3d 60 bd d6 95 96 bd b7 6b 0f 3d
       0.07862373 -0.054745793 -0.07352798 0.035014834
000120 17 1a 67 bd a2 fa 61 bd 25 f5 dd bc e8 54 19 3d
       -0.056421366 -0.055170663 -0.027094433 0.03743449
000130 dd a4 ab 3c 0e c8 a3 3c 6a f0 51 3c ce 2b da 3c
       0.020952636 0.019992854 0.012813667 0.026632216
000140 f4 75 9e bb c3 af fb bd 8a fd c3 3c 70 37 b9 bd
       -0.0048358385 -0.12289383 0.023924608 -0.09043777
000150 a7 3b fd bb c5 16 b5 bc e5 32 67 3c 57 59 7b bd
       -0.0077280584 -0.022105584 0.014111255 -0.061364498
000160 11 8a fb bb f7 ef e3 bc b0 6c 84 ba 6e 82 54 bc
       -0.007676371 -0.027824385 -0.0010103192 -0.01297055
000170 08 fa 54 bb b6 6b 59 bc a1 f6 06 bb 68 27 10 3c
       -0.0032497663 -0.013270309 -0.002059378 0.008798458
000180 4e 62 b1 bb 02 2b 09 bd 6a aa d9 ba 26 b8 fb 3c
       -0.00541333 -0.03348828 -0.0016606573 0.030727457
000190 2e 65 1e 3d fb 95 49 3d 51 0b 80 3d bc 04 0c 3e
       0.03867071 0.0492153 0.062521584 0.13673681
0001a0 9d 84 d6 3c a3 a7 85 3d 9a 46 25 bc b2 51 7c bc
       0.026186282 0.06526115 -0.0100876335 -0.015400337
0001b0 e9 be a4 3c 99 62 3d bd 14 07 88 bd 35 65 73 bd
       0.020110564 -0.04623661 -0.06641975 -0.05942269
0001c0 e5 b1 10 bd c9 33 cf 3c f0 d8 9e 3d ef 5f dc 3c
       -0.035325903 0.025293248 0.07756221 0.026901213
0001d0 1f ac 0f bc 2b 5d 4d bd 58 e2 9c 3d c5 f1 ea bc
       -0.008769064 -0.05013768 0.07660359 -0.028679738
0001e0 a5 7f e7 3c 24 e9 d3 bc fd 22 59 3b 6c 26 b9 bc
       0.028259108 -0.025868006 0.0033132427 -0.022601329
0001f0 7c 1f 40 bd 50 2e 71 bc da 7e 09 bd 52 3c 06 bd
       -0.046905026 -0.014720514 -0.03356824 -0.03277237
000200 40 44 9a bc 94 18 6a bd e3 99 34 3c a8 2b 18 bd
       -0.018831372 -0.057152346 0.011023018 -0.03715101
000210 da ce e3 bc 69 3b f4 bb dd e4 df bc 89 09 dc 3b
       -0.027808595 -0.0074533713 -0.02733081 0.006715004
000220 47 85 23 bc c5 3f 84 3c d5 fb e8 bc 8b a5 dd bc
       -0.009980506 0.016143689 -0.028440395 -0.027056476
000230 1b 68 fa 3c 00 e2 a6 ba 4d f8 e9 3c 58 a1 95 bc
       0.03056722 -0.0012732148 0.028560782 -0.018265411
000240 b1 da 22 3d 4e aa ee bc 43 f1 3c bc b9 85 a2 3b
       0.03975934 -0.029133942 -0.011532131 0.0049597886
000250 6e 28 9f bb 64 13 9d bb 49 e7 38 bc fe ac 1e bd
       -0.0048571145 -0.0047935713 -0.011285611 -0.038739197
000260 32 60 39 3a af 07 d5 3c 52 f3 e7 3d 66 9e 07 3e
       0.0007071524 0.02600464 0.113257065 0.13244018
000270 d2 62 ac 3d a8 de f5 3d 17 60 c8 bd 71 81 46 3d
       0.08417286 0.12005359 -0.09783953 0.04846329
000280 5f 5b c4 3c 29 c9 88 bd 5a 76 fb bd 27 57 c0 3c
       0.02396935 -0.06678993 -0.12278433 0.023479057
000290 ef 1e 8e 3c 4e fc a8 3d f9 f2 10 bb 23 30 03 be
       0.017348735 0.08251248 -0.002211748 -0.12811331
0002a0 14 2f ad 3d 3d 82 4d 3d fd d6 95 bb fc c2 e7 3c
       0.08456245 0.050173033 -0.0045727477 0.028291218
0002b0 bf e3 62 bd 96 4a 02 bd ad ce 56 bd 5a 33 05 3d
       -0.055392977 -0.031809412 -0.052443195 0.032519676
0002c0 fc 84 84 bc 69 25 40 bd 3e 19 89 bd ae 61 15 3c
       -0.016176693 -0.046910677 -0.06694268 0.009117527
0002d0 50 fd d2 bc e5 9b ca bb db 2f 64 3d fa 8c 94 3d
       -0.025755554 -0.006183135 0.0557097 0.07253452
0002e0 66 17 45 bd c3 7f 81 3d 46 67 ac bc b2 e1 bf bd
       -0.048118018 0.06323197 -0.021045338 -0.0936922
0002f0 8e 41 8a bd 8c 6b b6 3c 13 d5 94 bc a1 06 1a 3d
       -0.06750785 0.02226808 -0.018168008 0.037603978
000300 c5 40 07 be 51 0a a1 3d 94 d9 12 3c 2e f4 89 bd
       -0.13208301 0.07863296 0.0089630075 -0.06736027
000310 08 a6 d8 bd 62 97 0e bd 6e bc 28 3a b0 10 6c be
       -0.10578543 -0.03481234 0.00064367696 -0.23053241
000320 7c fa 67 3c 44 0c 02 3c eb fa e8 bc bd 9b 10 bc
       0.014158841 0.007937495 -0.02843996 -0.008826193
000330 ad dc 32 3d c6 37 54 3d 86 fd bd ba ac b6 e9 3d
       0.043667484 0.051811002 -0.0014495112 0.11411795
000340 81 02 d6 3d 79 f9 78 bd 67 02 f4 bb d1 7a 79 bd
       0.10449696 -0.06078479 -0.0074465754 -0.060908142
000350 3d 4d 8c 3d 9e 89 bc bd 8d 6a b3 3c 26 35 b0 bd
       0.068506695 -0.09205936 0.021901393 -0.08603887
000360 77 be 74 3d df b0 a6 bc 17 a3 95 3c e2 18 91 3c
       0.059751954 -0.02034801 0.018266244 0.01771206
000370 25 09 00 3d 86 25 57 3d c4 46 81 3c 1c 70 b3 3d
       0.03125872 0.05252602 0.015780814 0.087616175
000380 bc b3 79 bc 14 b6 04 3c 4e c4 c6 3c fb 4f 63 3d
       -0.015240606 0.008100051 0.024263527 0.055496197
000390 c9 f1 b3 3a c8 a0 e9 bc 40 7e dc ba f6 23 af 3c
       0.0013728674 -0.02851905 -0.0016822293 0.021379452
0003a0 84 8a a9 ba 91 8f 83 3c 2c 1f 0e bd 39 d6 93 3c
       -0.0012934958 0.016059669 -0.034697697 0.018046485
0003b0 74 0d 7b 3c 49 e5 c7 bb ed 2c f8 bc e9 0e 3c bc
       0.015323032 -0.006100331 -0.03029486 -0.011478164
0003c0 e3 f5 af 3d 6b c4 c9 bd 42 a7 58 bd 1d 51 85 3d
       0.08591821 -0.09851917 -0.052893884 0.06509612
0003d0 bf db b3 bd b1 2c 93 bd 8d 60 49 3b e1 4c 82 3d
       -0.087821476 -0.071862586 0.0030727715 0.0636232
0003e0 45 e5 04 bd 9c 35 f4 3d a8 3c 5b bd f3 14 ec 3d
       -0.03244521 0.11924288 -0.053524643 0.11527433
0003f0 b0 ef bf 3d 9a 40 e6 bd 16 81 ea 3d 97 9c 60 be
       0.09371889 -0.112427905 0.114504024 -0.21934734

bias f4 [512]
000000 bb c0 5f 3d c2 3e 57 3e 0c 6f 9c 3d 1a cc 45 3d
       0.05462716 0.21020034 0.07638368 0.04829035
000010 8e a9 83 3c 35 f8 ce 3d 30 7a 5c 3d b3 c9 86 bd
       0.01607206 0.101059355 0.053827465 -0.0658144
000020 e4 ec bf 3c ff a7 6f 3d c7 a7 4d b9 27 6c 18 3e
       0.023428388 0.058509823 -0.00019612825 0.14885007
000030 44 6c 0b 3d 05 d4 4a bd 80 bc 62 3d f9 b0 c3 ba
       0.034038797 -0.049518604 0.05535555 -0.0014930061
000040 d3 86 67 3c 56 d3 80 3c 9f 75 27 3e 92 e0 cc 3c
       0.014131266 0.015725773 0.16353463 0.025009427
000050 3f 67 19 bd 6d e4 b1 3d ad 7f 79 3d 6f 82 26 3e
       -0.03745198 0.08686147 0.060912777 0.16260694
000060 c5 89 ed 3d 1f d3 23 3d 44 62 cc bc aa b0 7f bc
       0.11598543 0.039996263 -0.0249492 -0.015606085
000070 c8 06 1e 3d db dc b9 3d 86 60 0b 3d bb f0 9d 3d
       0.038580686 0.09075328 0.0340276 0.07711931
000080 60 ef ed 3b 36 bc 8a bd f4 6b 9d 3d d9 d0 48 bd
       0.0072612017 -0.0677418 0.07686606 -0.049027298
000090 6c f3 3a bc 7f b6 8c bd cd bf cc bc 94 d3 61 3d
       -0.011410575 -0.06870746 -0.024993801 0.055133417
0000a0 a8 84 59 3d be ed db bb 94 a8 19 bd e7 6f 15 3d
       0.053105026 -0.0067116907 -0.037514284 0.03648367
0000b0 cb a0 c3 bd 88 03 04 bd 57 e4 00 bd 00 e7 bc 3d
       -0.09552153 -0.03222993 -0.03146776 0.09223747
0000c0 72 0a 9b 3c fc 1e 51 bc 01 53 e0 3d f1 f6 ac 3d
       0.01892588 -0.012763735 0.10953332 0.08445538
0000d0 14 74 c4 bc 88 c9 3d bd 76 f4 73 3d 6a 3f 33 3d
       -0.023981132 -0.046334773 0.059559308 0.04376165
0000e0 1e fd 43 3d fc aa 46 bc 76 40 0a bd 5e b5 16 3d
       0.047848813 -0.012125727 -0.03375288 0.03679406
0000f0 c9 54 da 3c c0 a9 b5 3d 59 ca 49 3c 66 24 3f bd
       0.026651757 0.08870268 0.01231631 -0.04666557
000100 e9 5a 80 3c c5 eb ca 3c 02 05 61 bb 46 a1 f5 bc
       0.01566835 0.024770627 -0.003433526 -0.029984128
000110 d2 b0 b9 bb 86 43 92 3d ae cb 63 3d 3c cd 63 3d
       -0.0056668306 0.07141785 0.055614166 0.05561565
000120 25 ca de 3c 0e eb f2 bc 83 34 90 3c b0 b1 11 bd
       0.027196 -0.029653098 0.017603165 -0.035569847
000130 17 2d 59 bd f4 56 22 bc 5c 32 86 3d 92 97 a8 bb
       -0.053021517 -0.009908427 0.06552574 -0.0051450217
000140 93 18 3e 3d 81 05 7f 3d e7 06 56 3d 97 e8 d2 3d
       0.046410155 0.06226111 0.052252676 0.10298269
000150 fa f3 10 3a 05 4e 10 be 60 3d 4d 3d 33 ff 2b bc
       0.00055295194 -0.14092262 0.05010736 -0.010497856
000160 7f 88 f9 3c a7 58 20 3e 56 69 b0 bc e0 bf 20 3e
       0.030460594 0.15658818 -0.021534603 0.15698195
000170 c6 bb 92 bc dd ff 83 3d 6c 32 3a 3d 36 d7 42 3c
       -0.017911803 0.064452864 0.045458242 0.011892131
000180 82 91 06 b9 c4 28 60 3d 7a ff d0 3b 81 46 98 bd
       -0.00012833442 0.054726377 0.0063781114 -0.074353226
000190 d3 ad 8b 3c fe 57 e9 3d 2c 78 8d 3d d2 ab 00 bb
       0.01705066 0.11393736 0.069076866 -0.0019633663
0001a0 72 08 7c bd 2e e4 52 3d 3c a1 58 bc 02 e8 d6 bd
       -0.06153149 0.05148714 -0.013222035 -0.10493471
0001b0 0d b7 0f bc f5 98 38 3e 55 d9 1e 3d 28 a5 51 3d
       -0.00877167 0.18027098 0.038781483 0.051182896
0001c0 4d 8b 0c 3c b9 31 64 3b 76 07 7b 3d 7e 3b d9 bc
       0.008578134 0.0034819676 0.061286412 -0.026517626
0001d0 a7 fa dc 3d 0e a9 b9 bd e3 30 9a 3c 2d 24 90 bc
       0.10789996 -0.09065448 0.01882214 -0.017595375
0001e0 93 6b cb 3d 2d 79 01 3e b8 b7 ff bc 3c a1 f1 3c
       0.099326275 0.12643881 -0.031215534 0.029495828
0001f0 ac 37 af 3d 1e 96 2d 3c 5b 26 c4 3d ff 4b be 3d
       0.085555404 0.010594873 0.09577628 0.09291839
000200 e4 42 bc 3d 9b fc 57 3b 4a f5 79 3d 81 87 ed 3d
       0.09192446 0.003295696 0.06102494 0.11598111
000210 a6 d7 0c 3c 2a 26 b1 bd 9e 8d 9a 3d ca e6 05 bd
       0.0085963365 -0.08649857 0.075465426 -0.0326908
000220 f4 f9 48 3d fc 89 ff 3d 2b af 4e 3c c6 a6 33 bd
       0.0490665 0.1247749 0.0126150055 -0.04386022
000230 3f 48 9d bd 09 80 4f 3d 65 6f f4 3d fa 7e 4c 3d
       -0.076797955 0.050659213 0.11935309 0.04992578
000240 b2 d6 a8 3d a4 a0 04 3d 52 1a a5 bc 36 ce bf bc
       0.08244075 0.03237976 -0.020154152 -0.023413759
000250 e3 7f 41 bd 83 ff 70 3a fb 22 1f 3d 08 b0 95 3c
       -0.047241103 0.00091933477 0.03885172 0.018272415
000260 22 50 a2 3d af 92 92 3d 65 9f 97 ba 23 2a 02 3d
       0.0792544 0.07156884 -0.0011567889 0.031778466
000270 92 4a 70 bc cf e0 49 3d f4 5b 9b bd 27 45 b6 3d
       -0.014666216 0.04928666 -0.07585898 0.088999085
000280 3f 8c 07 3d f2 4e fc bd 33 b3 2a 3d 39 39 db 3d
       0.033092733 -0.12319745 0.041674804 0.10704274
000290 a4 3e 27 3c d4 46 28 3d 58 1c da 3c 72 3a da 3c
       0.010207806 0.041083172 0.026624843 0.026639197
0002a0 43 6c 49 3d 64 ff a0 bd 98 8a 22 3b ff 6b 98 3d
       0.049175512 -0.07861212 0.0024801847 0.074424736
0002b0 23 84 5f 3d 06 18 22 bd 1e f9 3f bc b7 79 b3 bc
       0.054569375 -0.03957369 -0.011717109 -0.021908624
0002c0 d2 db 25 3d f1 19 17 bd 97 1a 6a 3d 67 f4 5d 3d
       0.04049284 -0.036889974 0.057154264 0.05418816
0002d0 9c fa 4d bd 05 7a 11 3e 71 0c c1 3d a2 4d ae bd
       -0.050287828 0.14206703 0.09426201 -0.08510901
0002e0 50 86 2a bd 2e f4 3f bd 7f 6b 38 bd 13 81 d4 bc
       -0.041631997 -0.046863727 -0.04502439 -0.025940454
0002f0 c0 1a 9d 3d f2 f0 3c bc 0b a9 18 3e 16 33 98 3c
       0.07671118 -0.011532055 0.14908235 0.018579047
000300 ce 33 b5 3d 67 cc f2 bd 27 a3 a1 bd ce a5 cc 3d
       0.088477716 -0.11855393 -0.07892447 0.09992562
000310 0e 90 21 bd 9b c9 12 3c e9 be 46 3d 90 54 d2 3d
       -0.039444022 0.008959199 0.04852191 0.10270035
000320 7a 4b c8 3c e9 a2 a2 3b 1e 30 41 3e 8f 5e 3b 3d
       0.024450053 0.004963268 0.18866012 0.045744475
000330 fc 9c ab bd b6 d9 f7 bd c8 19 a1 3c a1 e8 ee 3b
       -0.08379552 -0.12102072 0.019665614 0.007290915
000340 ee 2e 21 bd f6 72 72 bd 70 67 ae 3d a8 79 6d bc
       -0.039351396 -0.059191667 0.08515823 -0.014494337
000350 6d dd 93 3c 6e 12 54 3d 70 ed ca 3b 33 8a 9c ba
       0.01804992 0.05177539 0.0061928555 -0.0011943042
000360 cb d7 36 bd 54 fc f8 3d 0b 59 c7 bd a8 b4 65 3d
       -0.04463939 0.12157503 -0.097337805 0.05608049
000370 f7 c2 04 3e cc b9 d8 3c 84 85 48 3d 4d ac ff bc
       0.12964998 0.026455782 0.048955455 -0.03121009
000380 63 43 98 3d c9 77 da bc b9 f0 79 bc dd ba 88 3d
       0.07434728 -0.026668446 -0.015255147 0.06676266
000390 b7 20 f6 3c ec 34 dc bd 6b f3 87 3c 4b a0 07 3d
       0.030044897 -0.107522815 0.016595563 0.03311185
0003a0 4f 43 e8 3c e6 c3 f2 3b c4 91 97 3d 95 9f 87 bb
       0.028352408 0.007408607 0.074008495 -0.0041388967
0003b0 52 ba 01 3d c5 1a 55 3d 1c b9 81 bd a5 3b 9a bd
       0.03167183 0.052027483 -0.06334135 -0.075309075
0003c0 13 7c 09 3d 9e 74 96 3c 0a 49 ec bd 32 c6 45 3d
       0.033565592 0.018366154 -0.115373686 0.048284717
0003d0 25 f3 fa bc cf ad c1 bc 42 c9 ef bb 93 17 80 3d
       -0.030633518 -0.023642449 -0.007317693 0.062544964
0003e0 ca 68 4e bc 93 58 0c 3d dd f6 0f 3d ed 3f 77 3d
       -0.012598226 0.03426416 0.035147537 0.0603637
0003f0 3a 00 90 3d b5 d1 4b bc 30 13 b7 3c ad d3 cc 3c
       0.07031293 -0.012440135 0.022348017 0.025003279

weight f4 [14, 512]
000000 85 c3 10 3d b5 e8 c7 3d 89 ea 48 3d ca 43 13 3d
       0.035342712 0.09761182 0.049051795 0.03595332
000010 7e e3 3e bc f4 60 8a 3d 43 fb aa 3c b2 f3 0d bd
       -0.011650918 0.067567736 0.020871764 -0.034656234
000020 9e b4 3c 3d df 1c 3f 3d ae df e4 bb a1 e8 3d bd
       0.046070687 0.046658393 -0.0069846725 -0.04636443
000030 a3 01 59 bc e8 52 3e bd 90 cc ad 3d a2 28 68 3d
       -0.013245019 -0.046465784 0.08486283 0.056679375
000040 99 cf 8c bb 79 5c aa 3d 23 09 c1 3d cc 1c 53 3d
       -0.0042972085 0.08318419 0.09425571 0.051541135
000050 42 0f d5 3c c6 a6 9e 3d ff ee a6 3d 73 1b db 3c
       0.026008252 0.07746653 0.08151054 0.026746487
000060 b2 a3 d6 3d be e3 9a 3c 47 6a 9d bc b2 d1 33 3d
       0.10480441 0.018907424 -0.019215716 0.043901153
000070 ab 5a 3f bd 32 04 0f 3d b7 4b 85 3c 5b 7f 45 3d
       -0.046717327 0.03491611 0.016271455 0.04821716
000080 f4 8f 49 3d 49 b9 9f bd 25 0d 9c 3d eb af 2c bd
       0.04920955 -0.07799012 0.076196946 -0.042159956
000090 ea 20 10 bd 52 2e 24 bd a3 c1 81 bd fb 50 d9 bc
       -0.03518764 -0.040083237 -0.063357614 -0.026527872
0000a0 93 8b b1 3c 36 e7 ae bc 1d d5 79 bc fb e6 b1 3d
       0.021673 -0.021350484 -0.015248564 0.08686634
0000b0 c9 e2 ae 3d ae 63 e5 bc 0c cd 37 bc e3 d5 7d 3d
       0.085393496 -0.028001633 -0.011218321 0.061971556
0000c0 46 d8 ca bc 0e e6 72 bc 4a 3a 98 bc d7 a9 82 3d
       -0.02476133 -0.014825357 -0.018582482 0.06380051
0000d0 c9 ff 4f 3d 48 4e 87 3d 18 66 4c 3d 1a 3a c9 3c
       0.050781045 0.06606728 0.04990205 0.024563838
0000e0 cd 64 e4 3c b3 2e ac bc 0f 02 5d 3d 9e 30 f7 bb
       0.027880097 -0.021018362 0.05395704 -0.0075436374
0000f0 b5 39 fe bc 97 be 0e 3d d0 ef a0 3b 06 a2 a3 bc
       -0.031033376 0.03484973 0.0049114004 -0.01997472
000100 fe 5a 36 3d c3 17 7d 3d b9 46 bb bc b6 d3 1b 3d
       0.04452037 0.06179024 -0.022860872 0.0380437
000110 76 3f c9 bc f2 54 a4 3d 9d 1a 88 3d d2 f3 a8 3b
       -0.024566393 0.080240145 0.06645701 0.005156019
000120 40 11 13 3d 09 96 d4 bc cd 21 a6 3d 62 19 04 bd
       0.035905123 -0.025950449 0.08111916 -0.03225077
000130 9e 63 67 3d 27 8c 95 3d fe fc 54 3d 28 3e 70 3d
       0.056491487 0.073021226 0.051999085 0.058653027
000140 ab 13 53 3d e1 85 70 bb bb 84 4c 3d d7 2c 99 3d
       0.05153243 -0.0036700892 0.04993127 0.07479256
000150 f3 2a 3e bc 36 dc d3 3d 87 35 ef 3c c6 c2 2b bd
       -0.01160692 0.10344736 0.029200329 -0.041933797
000160 e1 1f 99 bc 03 53 a5 3d 9f 5c b5 3d 2f e5 02 bc
       -0.018691959 0.08072474 0.08855557 -0.007989212
000170 bb 4a 1c bd c5 28 5d 3b 2b 96 0b 3d ab 46 05 3d
       -0.038157206 0.0033746224 0.03407876 0.032538097
000180 d0 97 43 bb e2 cf d3 3b 67 fd a5 3d 1a 20 73 3d
       -0.0029845126 0.0064639905 0.08104973 0.059356786
000190 97 f8 f8 3c 50 9d 76 3b 21 35 0a 3d 4b b8 b3 3d
       0.030391974 0.0037630387 0.033742074 0.087753855
0001a0 14 4c 63 bd ef 27 02 3d 5f 8b b2 3d a9 ee 73 bd
       -0.055492476 0.031776365 0.08717989 -0.059553776
0001b0 97 bf df bc 77 1f e3 3d b8 2b 5b bd 1c 8b 4a 3d
       -0.027313037 0.11089986 -0.05350849 0.04944907
0001c0 5a 0b 83 3d e5 8c 20 bd f7 c8 de 3c ca 66 6c 3d
       0.063986495 -0.039196867 0.027195437 0.057715215
0001d0 4b cd 8e 3d c3 1f 77 bd 39 76 7c 3d 9a f1 e7 bc
       0.0697275 -0.060333025 0.061636183 -0.028313447
0001e0 d7 ba 11 bd 70 b4 8a 3d cc 6a c7 3d d9 86 46 3a
       -0.035578575 0.06772697 0.09737167 0.00075731945
0001f0 8b 44 67 3d a8 6b 64 bc e7 84 8d 3d 59 90 ac 3d
       0.056461852 -0.013941683 0.06910115 0.0842597
000200 e5 32 ba bc ee b6 4a bd 4e d7 6a 3d c7 e2 5f 3d
       -0.022729347 -0.04949086 0.057334237 0.05465963
000210 75 a1 cf 3d f2 c5 47 bd 61 ee 9b 3d 39 e3 f5 3c
       0.10138217 -0.04877276 0.076138265 0.030015575
000220 4e 40 90 3d 37 7c 18 bd b2 1d 54 3d 14 62 48 3d
       0.07043515 -0.037227836 0.051786132 0.04892166
000230 93 f1 1c bd dd d3 90 bb ce 25 c9 3d 87 d3 2e 3d
       -0.03831632 -0.0044197873 0.09821664 0.042682197
000240 51 c5 99 3d f0 fa ff bc e0 95 45 bc 76 95 69 bd
       0.07508338 -0.031247586 -0.012059659 -0.057027303
000250 b3 71 e1 bc f0 5c 55 bd 13 51 61 3d 95 94 93 3d
       -0.027520036 -0.052090585 0.05500896 0.07206074
000260 dc 7b 1d bd ae a5 42 3d 01 3f 7d 3c 58 0c 88 3d
       -0.0384482 0.047521286 0.015456916 0.066429794
000270 00 6e 16 bc 38 44 fc bc f7 d4 84 3d 92 f6 90 3d
       -0.0091814995 -0.030794248 0.06485932 0.070782796
000280 eb 7d c1 bc 16 4a 91 bd dd 15 b9 bc ee 85 b3 3d
       -0.023619613 -0.07094209 -0.022593433 0.087657794
000290 3f 7d fc 3b 98 b7 99 3c 39 33 22 bd 2c 7c e9 3a
       0.00770536 0.018764302 -0.03959963 0.0017813495
0002a0 7d 17 95 3d e8 14 46 3d ac de 5c bc 43 89 1e bb
       0.07279871 0.04835978 -0.0134808235 -0.00241907
0002b0 3f 01 3d bc b6 4c d6 bc 74 aa 70 bc 69 c8 9d bd
       -0.011535942 -0.026159626 -0.014689077 -0.07704241
0002c0 79 cf ea bc 23 b5 56 bd 5f 68 5f 3d 41 c7 fa bc
       -0.028663384 -0.05241884 0.054542895 -0.03061259
0002d0 39 1d fc bc f9 e6 04 bd 04 75 ad b8 eb ed 90 3d
       -0.030775653 -0.032446835 -8.271079e-05 0.07076629
0002e0 67 30 c9 bc fb f4 1f bc 95 06 b2 3d 5b dd 9c bd
       -0.024559213 -0.009762998 0.08692662 -0.07659408
0002f0 07 7c 61 3d fd e4 08 bd b3 39 87 3d b3 0a 03 3d
       0.055049922 -0.033421505 0.06602802 0.031992625
000300 be 6c 79 bb 1e 94 5e bd 64 35 ea bc 90 8d 99 3d
       -0.00380592 -0.054340474 -0.028589912 0.07497704
000310 23 65 d4 bc f8 eb 85 3d 4c 8a 53 3b ee 57 3f 3d
       -0.025927132 0.06539148 0.0032278476 0.046714716
000320 c3 5f 36 3d 9b cc ee 3c aa eb 7d 3c 50 0e 62 3c
       0.04452492 0.029150298 0.015498081 0.013797358
000330 85 e4 93 3d 91 86 8a bd e4 f3 0b 3c 95 91 38 bd
       0.07221321 -0.06763948 0.008542035 -0.045060713
000340 0d b8 7c bd cc 75 b2 bc 4d f1 3c bc 76 0b 95 bc
       -0.061698962 -0.021784686 -0.01153214 -0.018193942
000350 a0 30 05 bd d7 5c 4e bd 73 31 45 bc 98 50 3f bb
       -0.032517076 -0.050381508 -0.012035715 -0.0029192325
000360 5d d8 c3 3d 5e 22 4c bc 84 16 3d bd 97 84 c4 3c
       0.095627524 -0.012459366 -0.04616405 0.023989005
000370 a5 6e 23 3c 2a 30 44 bd dc 74 9b 3d 8f 4a c4 bc
       0.00997511 -0.047897495 0.075906485 -0.023961334
000380 06 d0 32 3d 0d 19 f3 bc f5 89 9e 3d 84 df bb bb
       0.043655418 -0.029675031 0.07741157 -0.0057334322
000390 e2 ea af 3d f3 13 ac 3d 75 e1 81 bc a9 ac 32 bd
       0.08589722 0.084022425 -0.015854577 -0.043621693
0003a0 b7 1f d4 bc 9c 47 9a bc 4d b8 25 3d a2 51 25 3c
       -0.025894029 -0.018832974 0.040458966 0.010090264
0003b0 37 42 5f bd 55 c9 69 bc c2 3c 3f bd f8 ea 26 bd
       -0.054506507 -0.014269193 -0.046688803 -0.040751427
0003c0 70 58 ff bc 4c 08 d0 3b 8c a4 9d 3d 34 5a e9 3c
       -0.0311701 0.0063486453 0.076974005 0.028485395
0003d0 a6 13 4b bc e3 44 44 3d e5 bf c5 3c f0 cc 97 3c
       -0.012394821 0.047917258 0.024139354 0.018530339
0003e0 70 dd 79 bd d8 48 85 3c d1 d6 03 3d 18 09 e7 3c
       -0.061002195 0.016270086 0.032187287 0.028202578
0003f0 bc 75 f1 bc a5 25 e4 3b 3f 78 12 3c 56 02 6e bd
       -0.029475085 0.0069624954 0.008939802 -0.058107696

bias f4 [14]
000000 06 04 eb 3d 27 02 7c 3c 19 de 24 3d ae 34 0f 3d
       0.11475377 0.0153813725 0.04025087 0.03496235
000010 82 5b c9 3c ed f0 2a 3d c0 68 dc 3d 30 b0 be 3d
       0.024579767 0.04173367 0.10762167 0.09310949
000020 64 6e bb 3b c5 84 a5 3c 3c e4 68 3d 65 20 4c 3d
       0.0057199467 0.020204911 0.056858286 0.04983558
000030 80 7f 8d 3d a5 d5 2e 3d
       0.06909084 0.042684216

weight f4 [2, 14]
000000 dd 74 ba 3e 85 07 b1 be 19 d0 62 be 4d 4d 84 be
       0.36417285 -0.3457605 -0.22149695 -0.25840226
000010 84 6a d2 be 5f e1 28 be 26 0b 94 3e e6 59 9e 3e
       -0.4109689 -0.16492222 0.28914756 0.30927962
000020 fc 01 c8 be e7 46 9d be 89 e8 98 be 17 ee aa 3e
       -0.39064014 -0.30718157 -0.2986491 0.33384773
000030 16 76 c4 be 85 c0 ee 3e 60 85 9c bd 9d 64 dc 3e
       -0.38371342 0.46631256 -0.07642627 0.43045512
000040 29 3b 3a 3e 72 c1 0c 3e 0e ea cc 3e a6 a8 4c 3e
       0.1818663 0.13745669 0.4002232 0.1998621
000050 4a 69 71 be 93 a7 83 be 2a 13 95 3e 80 0e a4 3d
       -0.23575321 -0.25713786 0.29116184 0.08010578
000060 86 e5 8e 3e a5 66 cc be 37 b5 c6 3e c9 f9 d4 be
       0.27909487 -0.39922062 0.3881013 -0.4159682

bias f4 [2]
000000 64 cc 08 bd 62 d6 87 3d
       -0.033398047 0.06632687
