assets/models/example_model_OneHot_iter10.pt (torch, 112385 bytes, 10 tensors)

weight f4 [37]
00000000: d95e 253f 02e1 663f 5811 583f 803b 5a3f
00000010: c098 333f a60c 163f 9b1b 273f ddfc 573f
00000020: b110 5c3f 757e 3f3f 5a18 4c3f 05c9 3e3f
00000030: 28cc 583f bc72 483f 541e 3b3f fb18 413f
00000040: ea46 333f cfc0 313f ec11 353f 81bc 4f3f
00000050: 2552 433f 516c 353f 81f5 c63e 2cd2 8b3f
00000060: c50c 893f 21c6 6a3f 4d30 873f 270c 7b3f
00000070: f5da 893f 59d9 723f ed52 753f ab64 733f
00000080: dde0 643f 2e81 6f3f 16b9 783f 0cde 4f3f
00000090: 13a1 6d3f
0.6459785 0.90187085 0.84401464 0.8524704 0.70154953 0.5861305 0.652765 0.84370214
0.8596297 0.74802333 0.7972466 0.7452548 0.8468652 0.7830007 0.7309315 0.7542874
0.7003008 0.6943483 0.7073047 0.8114701 0.7629722 0.708684 0.3885918 1.0923514
1.0707022 0.9170857 1.0561615 0.9806542 1.0769945 0.94862896 0.9582966 0.9507548
0.89405614 0.9355649 0.9715742 0.8119819 0.92823905

bias f4 [37]
00000000: 2250 ab3c e88b c23d 2784 183d f263 e73c
00000010: 98ac 893d 8644 343d 5111 6cbd 773e 2f3c
00000020: c9ae 3ebd 185b 5d3d b1aa 44bd 7a19 36bd
00000030: 270d 303d e205 893d 2714 813d ac59 823c
00000040: 4a94 723d 1c08 4d3b b46c b13d 0522 b339
00000050: acfb 45bd f24a 9c3c edb5 773c 188a 89ba
00000060: 895d 91bc da99 68bc 83cd c03c 5946 75bc
00000070: f48e e63c d527 c6bd 2d81 353d f76c 6c3d
00000080: f1e0 233d cfbe c7bb e0e1 bdbc 9de6 9e3c
00000090: a80e 97bd
0.020912234 0.09499341 0.037235405 0.0282459 0.06722373 0.04401066 -0.0576337 0.010696045
-0.046553407 0.054041952 -0.048014347 -0.04445789 0.042981293 0.06690575 0.06302672 0.0159119
0.05922345 0.003128535 0.086633116 0.00034166887 -0.048335716 0.019078705 0.015119058 -0.0010493426
-0.017744796 -0.014196837 0.023535496 -0.0149703855 0.028144337 -0.09675566 0.044312645 0.057721104
0.040009443 -0.006095744 -0.023178995 0.019397074 -0.07375842

running_mean f4 [37]
00000000: 5ca6 522c 07d6 b92c 711d a52c 05f8 c82c
00000010: 9360 3e2c 6299 a62b dad4 592c c7e9 b22b
00000020: 6b34 532c 653a 932c 318a 522c 134e 432c
00000030: 58c3 b92c f8bd 9f2c 6bf1 8d2c 621d 9c2c
00000040: dba0 612c 705a 262c a9ca 8a2c 1398 2b2c
00000050: 23aa 952c 4993 452c fcff 7f3f a38d bb3e
00000060: 6c9d 3c40 5690 933f c3ab 913f 216e 9e3e
00000070: b2e6 f540 230e ea40 729e c03e 343b aa40
00000080: a6be 0d3f d508 9941 d1c2 c641 e636 1d43
00000090: 4679 313d
2.9935143e-12 5.281778e-12 4.6928507e-12 5.7118776e-12 2.7054233e-12 1.1837582e-12 3.0955711e-12 1.2712547e-12
3.0014001e-12 4.1844744e-12 2.9919507e-12 2.7754507e-12 5.2797038e-12 4.5401426e-12 4.034264e-12 4.437049e-12
3.2063716e-12 2.3640222e-12 3.9446957e-12 2.438498e-12 4.2537237e-12 2.8077143e-12 0.99999976 0.36631498
2.9471083 1.1528423 1.1380543 0.30943397 7.684411 7.3142257 0.37620884 5.319727
0.5536903 19.129313 24.845125 157.21445 0.043328546

running_var f4 [37]
00000000: f084 4a2c 1e0c ad2c 3107 9b2c cb2d ba2c
00000010: 7cc4 372c 421d a42b 3920 512c 42f0 af2b
00000020: c115 4b2c 7151 8b2c f93f 4a2c 795f 3c2c
00000030: 12f5 ac2c 6e5d 962c 618f 862c 772d 932c
00000040: a61b 582c 62fc 202c 1c98 832c 3e2b 262c
00000050: 8374 8d2c 4d84 3e2c 53af 5023 7e54 0240
00000060: e3df a140 b8b0 0440 9231 b040 fc44 a440
00000070: f3f3 8e41 7322 bc41 632c e13f 44b7 8641
00000080: be91 2e40 1c3e ca44 4c5c 0544 5efd c544
00000090: 7447 9d3f
2.8779722e-12 4.918301e-12 4.4061634e-12 5.291522e-12 2.6114935e-12 1.1661022e-12 2.9718574e-12 1.2501183e-12
2.886011e-12 3.9596594e-12 2.8741438e-12 2.6769405e-12 4.9157423e-12 4.273629e-12 3.8244273e-12 4.183039e-12
3.0710794e-12 2.2877468e-12 3.7401315e-12 2.3614023e-12 4.0203964e-12 2.7074066e-12 1.1312829e-17 2.036407
5.05858 2.073286 5.506051 5.133421 17.869116 23.51682 1.7591671 16.839485
2.7276454 1617.9409 533.44214 1583.9177 1.2287431

weight f4 [512, 37]
00000000: a7cd bebc c0d6 503c 7008 93bc e070 c4bc
00000010: 1b7b 0d3c 6a9f 38bc 5b01 963c 64d4 1c3d
00000020: 8fd3 15bd 9a15 45bd 1390 18bc 2584 163d
00000030: c390 fb3a f829 813c 3db9 903c e672 a7bc
00000040: 94d2 143c 3196 c1bb a8ff b53b 2e40 47bc
00000050: dcc0 823c 40b9 ae3c babe f9bb 3a3b c6bc
00000060: 6543 21bd a3dc 99bc 9a35 8d3d b311 8dbb
00000070: 0ffd 3b3d 2359 4ebd 4543 c33c 439c 7fbb
00000080: 150f 4dbd c78e 39bd a279 b63c 5456 0e3c
00000090: 3e01 073c cbdd 4239 ef43 fb3c c9a1 273a
000000a0: 4cce 9c3c 31c1 afbc 31e8 8e3c f97a 083d
000000b0: f643 273d e9f8 b23d 8560 5bbd 8188 af3b
000000c0: 6bb1 f63c 7e79 f4bc 84c7 443d c8bb 1d3d
000000d0: 76b4 f5bc 36a4 bfbc 0b9f 283c 537f 0bbd
000000e0: 4618 4d3c 7c04 a53d 266a a1bb 872c 7e3b
000000f0: 5d9c 7e3c 9d26 223d 3769 24bc 48fa 97bc
00000100: 321a 01bd 9746 493c 5d10 3abd cc51 9d3d
00000110: 8b2f 43bb b54a 15bd 6c41 4c3d 2c00 06bd
00000120: 410c 0bbc 570d 9bba eec0 b33c bc79 0abd
00000130: 4c4c 6e3d 2a09 803d 46a0 b03d 7fc4 1b3d
00000140: e31e f0ba ccd1 903d 408d 68bd 3cfd 4f3d
00000150: 6aab 09bd 100d 933d 8772 463c 2767 3d3c
00000160: 06ac a7bc 3339 183d 68bf 8a3d c258 d5bc
00000170: 299f 893d 8745 083d 6296 38bd 4cf4 7b3d
00000180: de7b 153d 475a 99bd 2f22 ed3c 11f3 603d
00000190: 4fdc 8dbd 2e4e 84bd 3ade b0bc 73bf 58bd
000001a0: 7d8a abbd 9035 9c3d 4192 303d af8a acbc
000001b0: 1794 fc3d 4917 28bd 9196 08bb a861 f4bb
000001c0: bff8 2dbd 2f87 88bd 5a10 cd3b 5f71 aa3c
000001d0: b7de 02bd ef38 2bbc 914b 94bb 7575 c83b
000001e0: 2934 fcbb c516 6a3d 9e24 5f3d bdcd 0d3c
000001f0: 95f0 32bc b726 3b3d b51d 48bd 38cd c1bc
00000200: b26a 633d 9611 69bb faf3 f83c 04a4 dcba
00000210: 4e47 d4bc f149 5dbc 2e97 66bd 130e 7e3d
00000220: 5395 593c c909 ce3d 209e 15bd 7bed 55bd
00000230: 8696 a33b 7a50 e53c cbfd 90bb ab5c b1bb
00000240: 002d 05bc ffeb 143d 6ca5 f43c 3762 433c
00000250: f461 023d 6fb6 71bd 44c3 453d 4c72 e4bc
00000260: 67f3 133d 64cb 00bb 56ea 803d e740 aa3d
00000270: 915b 74bd ca16 8d3d 1b93 abbd 9e04 83bd
00000280: a8e9 973d e93d 9a39 9a87 f73c 8eda 9c3d
00000290: bd2e aa3d e802 003d 28c3 733d 9257 00bd
000002a0: 29bc 6e3c b00d 163d c8e7 d83c 4680 1bbe
000002b0: ab6c c8bc 38f7 ce3c 2079 c9bc 69b8 98bd
000002c0: 1db4 e3bc acfd 59bd 3683 b93d 6b19 883d
000002d0: e0fa 5ebd 9ac3 4d3d 4ca6 f03d 0e1f 123d
000002e0: 6eb5 35bb 06a5 89bb c72d 953c 3358 af3c
000002f0: ebd5 613d 056e c13c 6054 703d f3b3 45bd
00000300: 9487 e5bc 472c 003b 7937 48bc 5063 7c3d
00000310: 8b7f 7c3d 0954 45bd 103b ab3d 14ba 853d
00000320: 03a7 493d 9f5e b5bc e1a9 f93b 3553 edbc
00000330: a129 af3c fc14 f33c 58a9 dcbd b5a7 e5bb
00000340: 2c2b ef3c 9352 8fbd 6b05 8abd d486 08bd
00000350: 7d97 e13d a218 a0bd 2564 e43d e26b 80bd
00000360: bd4d 4ebd 7db8 a73d 6213 d03d 5831 c6bd
00000370: 3a2f 0abc 8641 cf3b 835c 08bd c949 a3ba
00000380: b151 333a c13f b1bc 55ca edbc fe8d c0bc
00000390: 8b3d e93c 4a77 aabc 34d5 e03c 1698 3e3a
000003a0: 4d11 b53c c77c bf3c 2b89 a7bb dd0f 2bbd
000003b0: 5273 113b c25c 19bc 1857 273c 4294 f8bb
000003c0: dc1f 02bd decc 823c aaed 983b e21e 493c
000003d0: 6b12 93bb b195 913c 7ad1 43bd 9511 5c3c
000003e0: a3d5 b1bd 2b94 133d a14f b5bc aaba 74bd
000003f0: 1b76 283d 582e e7bb bd89 22bd 4aab 6c3d
-0.023291422 0.012746513 -0.01794836 -0.023979604 0.008635308 -0.011268476 0.018311193 0.03828849
-0.03657871 -0.048116304 -0.009311694 0.036747117 0.0019192923 0.015767083 0.017666453 -0.02044053
0.009083409 -0.005907797 0.0055541582 -0.012161298 0.015961103 0.021328568 -0.0076216133 -0.024198163
-0.039370913 -0.018781966 0.06894989 -0.0043050884 0.045895632 -0.050377976 0.023835788 -0.0039003051
-0.05006321 -0.04530218 0.022274796 0.008687574 0.008240042 0.00018583906 0.030672042 0.00063946523
0.019141339 -0.021454426 0.017444702 0.0333204 0.040836297 0.08738882 -0.053558845 0.0053568487
0.030113896 -0.029843088 0.048041835 0.03850916 -0.029993277 -0.023393732 0.010291825 -0.034056973
0.012517994 0.08057496 -0.004925984 0.0038783865 0.01554021 0.039587606 -0.010034851 -0.01855196
-0.031519122 0.012284896 -0.04542576 0.07681617 -0.0029782976 -0.0364482 0.04986708 -0.032715008
-0.008486808 -0.0011829537 0.021942582 -0.0338075 0.05817823 0.06251748 0.0862432 0.03802919
-0.0018319752 0.070712656 -0.05677533 0.050778612 -0.03361074 0.07180226 0.012112266 0.011560238
-0.02046777 0.037163924 0.06774789 -0.0260433 0.067198105 0.03326943 -0.04506529 0.061512277
0.036495082 -0.07487922 0.028946964 0.054919306 -0.06926786 -0.06460224 -0.02159034 -0.052916955
-0.08376024 0.07627404 0.04310823 -0.021062223 0.123329334 -0.04103783 -0.0020841698 -0.0074579306
-0.04247355 -0.06666409 0.006258053 0.020806013 -0.03195068 -0.010450586 -0.00452561 0.0061175176
-0.0076966477 0.05715062 0.05447828 0.008655009 -0.010921617 0.04569122 -0.048856456 -0.023657426
0.055521674 -0.003556346 0.030389775 -0.0016833548 -0.025912907 -0.013506399 -0.05629652 0.06202514
0.013280231 0.1006046 -0.036527753 -0.052228432 0.004992309 0.027992476 -0.0044247857 -0.005412658
-0.008128405 0.036357876 0.029864036 0.011925272 0.031831697 -0.059011873 0.048281923 -0.027886532
0.0361208 -0.001965248 0.06294696 0.083131604 -0.059657637 0.06889112 -0.083776675 -0.06397365
0.07417613 0.00029419296 0.030216027 0.076588735 0.08309696 0.03125277 0.059512287 -0.031333514
0.014571228 0.036634147 0.02647771 -0.15185651 -0.02446588 0.025264367 -0.02459389 -0.074570484
-0.027795846 -0.053220436 0.090582296 0.06645473 -0.05443847 0.05023537 0.117504686 0.035674147
-0.0027726549 -0.0042005805 0.018210305 0.021404361 0.05513565 0.023612032 0.058674216 -0.048267316
-0.02801875 0.0019557641 -0.012220257 0.06161815 0.061645072 -0.048175845 0.08360875 0.06529632
0.04923154 -0.022139845 0.007619128 -0.02897034 0.021382155 0.029673092 -0.10774487 -0.0070085176
0.02919539 -0.06998172 -0.06739315 -0.033331707 0.11015222 -0.07817198 0.111519136 -0.06270577
-0.050367106 0.08189485 0.10159947 -0.0967738 -0.008434111 0.0063249497 -0.03329135 -0.0012457903
0.0006840481 -0.021636846 -0.029027143 -0.023505207 0.028471729 -0.020808835 0.027445413 0.00072705874
0.022102976 0.023374928 -0.0051127872 -0.041763175 0.002219398 -0.009360494 0.010213636 -0.007586033
-0.031768665 0.015966829 0.0046670036 0.012275429 -0.0044882796 0.017771574 -0.047807194 0.013431926
-0.08683326 0.036029976 -0.022132697 -0.05974833 0.04112826 -0.007055085 -0.03968214 0.05778054

bias f4 [512]
00000000: 54c5 0f3d 5003 283c a796 95bc edaf 17bd
00000010: 1db4 36bc 374a e0bc 6781 a8bc ecba 3dbd
00000020: 177a 953c b56d 413d bbe5 013e 6d4d a53c
00000030: 6cf9 bebc 5454 5dbc dfb1 01bc cb27 58bb
00000040: 4e3b d93c 141c db3d dd91 7fbd babe 4c3c
00000050: 418f e93c f73a 66bd 49f0 cd3c 029d 8d3d
00000060: a78b afbb ac02 403d f54d cb3d d574 95bd
00000070: 45ca 9f3c 9627 413d 1f35 623d a57f 7a3c
00000080: 1178 cc3c 03ba b6bc a7fa 88bc 4531 23ba
00000090: 45f5 b33c b9bb 593a a209 f13c 51dd 1ebd
000000a0: 5c92 95bc 4a51 423d 3bc4 423d 489e 753d
000000b0: acec 143d ab1e 2a3c 4362 893d de3c 923d
000000c0: 39d5 5a3d 5631 bb3c 44c3 4e3b 24b4 9d3c
000000d0: 84de aabc 67a5 c23a e505 0d3d 474a 443d
000000e0: e135 7dbc 9966 b93c 49af 6f3c 91df 36bd
000000f0: 4200 1e3b 7a3b b83c df03 d9bb 978c 623d
00000100: 8184 2cbd 29fe 793d 74b8 0a3d 7e7a 0f3d
00000110: 57a8 7e3c 1f15 913c 8041 c73b 96c9 2a3d
00000120: d086 e03c 1ba1 fb3c 904f efbc c26d 4c3c
00000130: b56c 3c3d d294 4dbc 704f d63d 4513 6a3d
00000140: 0317 ae3b 7f31 1a3e 7b8f 43bb beed 173d
00000150: b56e 2ebd b64f 7d3d fce3 a93c b8b1 7bbc
00000160: 596f 823c 4776 84bc 4b6d 5cb8 cc31 3db9
00000170: 3e7c 2d3d 079b c43a 3ae4 823b e7d7 3e3d
00000180: 434a 0d3c de03 14bd 514f 313d a84e 80bd
00000190: 5111 b4bc 9401 713d f6e0 cfbd 398a 09bd
000001a0: f91b 84bc 1bd0 45bd bb80 ebbc b4e2 b63c
000001b0: fa33 21ba 9471 1bbd 68cc 29bd fd5d 123d
000001c0: b830 953b 8302 a53d c4fc 063d 4788 cd3d
000001d0: 8cde 02bb 486a 473d 5f66 223d 5b41 b63d
000001e0: 76da 493a c8bc 0ebc dbe7 923b dc58 5abd
000001f0: 8104 fbba 5b63 fb3c 3e42 10bd 1b9f 513c
00000200: 9b9e 32bd e2b8 653d f76f 31bd 5d4a 283d
00000210: 5d19 a63d 4ced 45bd e3d1 9d3c 2fd7 1fbd
00000220: 4c13 d13c 3ff4 013d 1d2c 313d 936b b1bb
00000230: ac7a 593d 1cc6 d93d ad52 fd3c 4d7f 4fbc
00000240: 927a c13c f7e5 653c 94d7 89bb bd7d 1dbd
00000250: 0bfb 283d e86a 143e cfc4 843c d1b3 aabc
00000260: e444 893c 0529 dbb9 1047 83bd c738 b63c
00000270: 311b d73d 8f90 0bbd f482 d73c d90f 62bd
00000280: ed9c 013d 0757 db3c a5e2 14bd ddd5 cbbc
00000290: 50ab edbc ad8d 91bb 31a7 ef3d f2fe b63d
000002a0: dad1 e7bb f057 6a3c ad98 ba3c a6b0 b13d
000002b0: 3ba0 52bd 0982 383c 2764 bb3c 3f42 56ba
000002c0: 74c9 06bd 40b2 5bbc 65e3 883d fcc5 25bd
000002d0: a81a c43b 91df 2c3c a5f9 18bd d2db b43d
000002e0: ea34 3ebc fd51 0fbd a934 5e3c c483 bb3b
000002f0: bffe 79bc 7c6c be3d e5b1 833d 4636 e1bc
00000300: cf1d 1d3d 9a6f 493d fe96 65bd b9f5 d93b
00000310: e930 b03d 6f6e c93b f3a1 893d ccb2 0cbc
00000320: b7af 2bbc 95cc d73d be8c 583d 3ec1 f0bb
00000330: 6b6b a5bc b06b 313d 69f4 6d3c 6c82 043e
00000340: cdd8 04bd 15ea 2abb 2cdf 5bbd 473b 703d
00000350: b71e 353d 99ad a03c 9fc1 b83d db42 bc3c
00000360: 9f90 013c 87ad b33c 7d0f 8f3c 9769 12bd
00000370: 3e4e 493d c1d9 11bc 58dc 443c 52cf 923d
00000380: 4555 3ebd ab6a 39bc 9b9c dbbc e1f2 f13b
00000390: 21e6 643b 25a3 803d ef75 5cbd e382 12bd
000003a0: c132 3c3d 14c9 c83c 049b 4ebd caac bd3d
000003b0: b3ba 203d abe4 3c3c 5921 5ebc d042 adbd
000003c0: 76d8 a5bb 1134 16bd ea4f 5e3d 1400 69bc
000003d0: 25fd 35ba 0d76 bcbd 75ac 93bc 41a5 8a3c
000003e0: eadd 80bc bbe6 55bd 98b8 f5bc 04d1 333d
000003f0: 7a9c f63c 9c8f c3bc c191 143c c8fc 233d
0.035100296 0.010254696 -0.018260313 -0.03703301 -0.011151341 -0.027379138 -0.020569516 -0.04632084
0.018246694 0.047223765 0.12685291 0.020178521 -0.023312293 -0.013508875 -0.007915943 -0.0032982703
0.026517536 0.10698715 -0.062394965 0.012496645 0.028510692 -0.056208577 0.025138991 0.069147125
-0.005357224 0.046877548 0.099269785 -0.072976746 0.01950563 0.047156893 0.05522644 0.015289222
0.024959596 -0.022305494 -0.016721083 -0.0006225298 0.02196754 0.0008305866 0.029423539 -0.038785283
-0.018258266 0.047440805 0.04755042 0.059965402 0.03635852 0.010383288 0.06708195 0.07140516
0.053426 0.022850674 0.0031549493 0.019250937 -0.020858057 0.0014850319 0.03442945 0.0479224
-0.01545474 0.02263193 0.014629194 -0.044646803 0.002410904 0.022489298 -0.006622776 0.05530986
-0.042118553 0.0610334 0.033867314 0.035028927 0.015543065 0.017710267 0.0060808063 0.041696154
0.027408034 0.03071647 -0.029212743 0.01247734 0.04600211 -0.012547689 0.1046437 0.057147283
0.005312802 0.15057944 -0.002984016 0.037091963 -0.042586047 0.061843596 0.020738594 -0.015362196
0.015922235 -0.01616968 -5.2553874e-05 -0.00018042995 0.042354815 0.0014999815 0.003994492 0.04659262
0.008623662 -0.0361365 0.043288533 -0.062650025 -0.021980913 0.058839396 -0.1015033 -0.033579085
-0.01612662 -0.048294168 -0.028747907 0.022324897 -0.0006149408 -0.037950113 -0.041454703 0.035734165
0.004552927 0.0805712 0.0329559 0.100357585 -0.0019969074 0.048685342 0.03964841 0.08899184
0.0007700095 -0.008712001 0.0044832057 -0.0533074 -0.0019151123 0.030687025 -0.035219423 0.012794281
-0.04360829 0.05608452 -0.04331967 0.041086543 0.081103064 -0.048322007 0.01926512 -0.039023574
0.025521897 0.03172707 0.04325496 -0.005414435 0.053095505 0.106334895 0.030923212 -0.012664628
0.023618016 0.014031879 -0.004206607 -0.03844999 0.04125504 0.14493906 0.016207127 -0.020837696
0.016756482 -0.00041801497 -0.064100385 0.02224387 0.10503233 -0.03407341 0.02630756 -0.055190895
0.031643797 0.026774896 -0.036348958 -0.024882251 -0.029012352 -0.004441938 0.11701811 0.08935346
-0.007074577 0.0143031925 0.02277788 0.08676271 -0.05142234 0.011261472 0.022874905 -0.00081733236
-0.032906964 -0.013409197 0.06683997 -0.040472016 0.005984623 0.010551349 -0.037347455 0.0883099
-0.011609295 -0.0349903 0.01356236 0.005722495 -0.01525849 0.092980355 0.06430415 -0.0274917
0.038358506 0.049178697 -0.0560522 0.006651607 0.08603079 0.006147198 0.067203425 -0.00858755
-0.010478905 0.10537068 0.052868597 -0.007347255 -0.020192822 0.04331559 0.014523604 0.12940377
-0.03243332 -0.0026079465 -0.05367963 0.05865028 0.044218745 0.019614028 0.09021305 0.022981098
0.0079080155 0.02193333 0.01746344 -0.03574523 0.049146883 -0.008902014 0.012015425 0.071684495
-0.046468038 -0.0113169355 -0.026808074 0.0073836897 0.0034927207 0.06281117 -0.053823408 -0.035769355
0.04594684 0.024509944 -0.050440803 0.092614725 0.03924055 0.011529128 -0.013557755 -0.08460009
-0.0050612045 -0.03667075 0.05427543 -0.01422121 -0.00069423235 -0.09202204 -0.01802657 0.016924502
-0.015730817 -0.052221995 -0.029995248 0.043900505 0.03010391 -0.02387219 0.009067954 0.040035993

weight f4 [14, 512]
00000000: 0572 73bc 7d21 9ebb 61ee 9f3d 8ed0 2bbc
00000010: 2db5 ba3d 445a a43d de07 1bbd fda1 e5bb
00000020: 620a 35bd 2cdf 913d 3b18 953d 674d 2dbd
00000030: e115 23bd 5a60 9ebb 06a9 2d3c 903e 2dbd
00000040: bae7 b1bc 02c3 9b3d 8513 37bd 8b8b 08bd
00000050: 0917 beba 92f3 0fbd 7ccb 823d 44d3 9c3d
00000060: bf95 32bd 83fa c23d 5f52 8f3d 34e7 e1bd
00000070: ad75 7dbc 913f b53d b981 b23d 8006 5a3d
00000080: 11bc 103a 9391 c2bb b584 b33d d5fc 153d
00000090: 6033 c73d 4b97 143d 28fb 27bd 799a 09bd
000000a0: 325c 4b3c 9df9 22bb 3f34 ac3d 5273 1a3d
000000b0: 5051 afbd 4827 7dbd b5ff 963d 5dcf c3bc
000000c0: a722 583d 8f5e dbbc 64b0 9f3d cde7 3a3d
000000d0: 5d48 7b3d e170 18bd 22f7 11bb ea0c 703d
000000e0: e5ec 2f3d 6307 81bc 9ef3 d13d cc55 8abc
000000f0: aca5 41bd 6c98 c33c 7484 15bd b0e0 853d
00000100: f11a e5bc 8ad6 9b3d 4423 20bd 747c 9b3d
00000110: cd57 e13c 0f86 643b 2309 263d 52f2 3f3d
00000120: e76a 693d fad4 163d 3917 ec3b 09ee 7c3d
00000130: 5e39 bc3d 1b53 da3d aeac 753d 3dfe 553d
00000140: fe3b 913b 3055 c33d 600f 58bc 6019 aa3c
00000150: 5f55 a53d e0ab 54bd affe 8d3d 3d1c b73d
00000160: 7376 52bc 4ac7 76bd b815 5dbb 27b8 b43d
00000170: a2db f8bc d6be ff3c fba0 0b3d b11e 593d
00000180: 9dea 273c 26a9 78bd 6827 a13d d846 84bd
00000190: df0c 96bc 41d1 933d 73f7 19bd 3a52 9fbd
000001a0: 0182 41bd 6dfa 1bbd 2cd7 f33d d229 e0bc
000001b0: e010 11bd e612 c7bd f536 92bd 5bc0 29bd
000001c0: 9186 06bd 718c 8f3d fca1 9ebc 1d4c 943d
000001d0: 4409 1d3d 5760 d83d eda8 e03c 1b6b 773d
000001e0: 6519 e83d 6564 a13d 9e80 263c 1e6b 9ebd
000001f0: 5bbd e0bc 5345 463d 04f1 963d b265 1c3d
00000200: 0643 a9bc 7fd5 b23d 54d0 a7bc ad57 62bd
00000210: 4d19 ba3d a773 16bd 63dc 12bc 8052 e6bc
00000220: 6f3d 843d 6349 993d c513 8b3d c25b 81bc
00000230: 5fca b63d ae98 aa3d b49f e23c 3adc 93bc
00000240: 238f 42bd 4839 d9bb 9deb d2bc 2e96 8e3d
00000250: b499 953d ce62 b23d 4957 953d 9cc8 e3bc
00000260: e953 723b 1f00 4c3d 739b 4dbd 0c56 b73d
00000270: d306 293d 32d7 35bd 51df f03c 46b1 1fbd
00000280: dfb1 ff3b 718b 053a 4fe6 07bc e080 4a3c
00000290: 7a51 08bd c578 50bd 8238 4f3d cb13 5e3d
000002a0: 3109 963d 3c2b b13c b00c 013d 70a1 993d
000002b0: dda5 eb3d 90fc 58bd cdb4 8c3d b578 3cbd
000002c0: 338f 0d3e 7d71 36bd c865 f53d 60e4 aabd
000002d0: bb03 6b3d a478 8d3d 3204 3fbc 8026 a53d
000002e0: 2c0f 4a3c 36fb 76bd d2d5 bcbc e6c4 af3d
000002f0: 9761 a7bc 0d26 bb3d 29cd 9d3c b3ef 813d
00000300: 0b24 28bd 4c40 2a3d f23f e0bc 51b9 863c
00000310: ab9e 953d 9c9e 7dbc 0e72 fdbc 45ee 7c3d
00000320: 702d 10bd a4f0 513d 4095 8d3d c391 90bd
00000330: 5a14 933d a57b c13d 5101 003d 0190 8d3d
00000340: f9d6 cbbb ffa0 d33c 318b 68bd 0ff9 543d
00000350: 8901 413d e344 763c 3abb e23d 7d14 f6bb
00000360: af94 863c ad5e 2d3d 655a 2e3d 654f 9ebd
00000370: 8256 593d 1ef8 bb3d f24a 483a 1cda 553d
00000380: 1f28 04bd 3004 eb3d 197c e6bc 8a84 cbbc
00000390: 9e4f afbc cfee fa3d 3f1d 62bd b2eb 2cbc
000003a0: 5e2f 953d 5206 9c3d 509f 74bd 45f8 4d3d
000003b0: fe87 c03d 7eaa 8abc f28e a33b cb55 9abd
000003c0: 858f aa3d 1b74 9f3d 8e43 193d 6e79 11bd
000003d0: 5c28 ba3d be3f dfbd f07e c1bc c8d1 fc3d
000003e0: fb46 cdbc 2ace 08bd b22f 9dbd 260d bcbc
000003f0: 4f78 813b c25f b73d f189 c2bc 28b0 8f3d
-0.014858727 -0.0048257695 0.07809139 -0.010486735 0.09116588 0.08025029 -0.0378493 -0.007007836
-0.044199355 0.07122645 0.07280012 -0.042310145 -0.039815787 -0.0048332633 0.01059938 -0.042295992
-0.021716941 0.07605554 -0.04469635 -0.033336204 -0.0014502715 -0.035144396 0.06386468 0.07657483
-0.04359984 0.095204376 0.06998133 -0.110304266 -0.015469951 0.08850015 0.08716149 0.053228855
0.0005521188 -0.005937764 0.08765546 0.036618073 0.09726596 0.036277097 -0.041011006 -0.033594582
0.012412118 -0.002486802 0.08408403 0.037707634 -0.08560431 -0.06180504 0.07372991 -0.02390259
0.052767422 -0.026778487 0.07797316 0.04563122 0.061348308 -0.037217025 -0.0022272547 0.058606066
0.04295053 -0.015750593 0.102515444 -0.016886614 -0.047277138 0.023876391 -0.03650327 0.06536996
-0.027966948 0.076092795 -0.039096132 0.07592097 0.027507687 0.0034869944 0.040536057 0.046861954
0.056986716 0.036824204 0.007204917 0.061750446 0.091906294 0.10660382 0.059979133 0.052244414
0.0044322005 0.095377326 -0.013187259 0.020764053 0.08072924 -0.051921725 0.06933343 0.08940933
-0.012845623 -0.06024865 -0.003373487 0.08824187 -0.030378167 0.031218927 0.03408907 0.053007785
0.010248807 -0.060708188 0.07868844 -0.06458825 -0.018316684 0.072176464 -0.0375895 -0.07779355
-0.047243122 -0.03808062 0.11906275 -0.027363691 -0.035416484 -0.097204015 -0.071393885 -0.04144321
-0.032843176 0.07009209 -0.01936435 0.0724108 0.038338915 0.1056525 0.0274243 0.060404878
0.113329686 0.07880477 0.010162501 -0.07735275 -0.027434042 0.048405956 0.07370189 0.03818292
-0.020661842 0.087321274 -0.02048508 -0.055259395 0.09086857 -0.03673139 -0.008963677 -0.028115511
0.0645703 0.074847005 0.0679088 -0.015790824 0.08925318 0.083299026 0.027664043 -0.018049348
-0.047499787 -0.006629143 -0.025747115 0.06962238 0.07304707 0.08710252 0.07292039 -0.027805619
0.0036976284 0.049804803 -0.050197076 0.08951959 0.041266274 -0.04439468 0.02940336 -0.03898742
0.0078031863 0.0005094326 -0.008294656 0.012359828 -0.033280827 -0.050896425 0.050591 0.054218095
0.07325972 0.021627061 0.03150624 0.07501495 0.11506245 -0.052975237 0.068704225 -0.046013553
0.13824157 -0.044541825 0.11982304 -0.0834434 0.057376605 0.06907776 -0.011658715 0.08063984
0.012332719 -0.060298167 -0.023051176 0.08582477 -0.020432277 0.09138117 0.019262867 0.06344547
-0.04105 0.041565225 -0.027374242 0.016445788 0.07305654 -0.01547971 -0.030938175 0.06175067
-0.035199583 0.051254883 0.06913233 -0.07059052 0.07181616 0.094474114 0.031251255 0.06912232
-0.006220695 0.025833605 -0.05677337 0.051995333 0.047120605 0.015031072 0.11070867 -0.0075097666
0.01642832 0.042326618 0.042566676 -0.07729987 0.053061016 0.09178184 0.0007640562 0.05220996
-0.032264825 0.11475408 -0.028135346 -0.024843473 -0.02140027 0.122525804 -0.055203672 -0.010554241
0.07284425 0.07618393 -0.059722245 0.050285596 0.094009385 -0.016927 0.0049914056 -0.07535895
0.083281554 0.07785817 0.03741794 -0.035516195 0.09089729 -0.1090083 -0.023620099 0.123447
-0.02505826 -0.03339974 -0.07675113 -0.022955488 0.0039511095 0.08953811 -0.023747416 0.07016021

bias f4 [14]
00000000: 15f2 873d a9ba a53d 8b45 d6bb 7a36 ab3d
00000010: fa47 b63d daaf 003d 9035 ac3d a1e0 313d
00000020: 5bbf 7f3d 3030 3b3d a765 cf3b 1fb1 313d
00000030: c0ec a83d 6543 523d
0.0663797 0.08092243 -0.006539052 0.0836 0.08900447 0.031417705 0.08408654 0.043427113
0.06243835 0.045700252 0.0063292566 0.043381806 0.082482815 0.051333804

weight f4 [2, 14]
00000000: f7a1 fa3e b6d5 bc3e 1710 923d 1547 de3e
00000010: 7cf1 a03e 541f e53e 01b1 e7bd 8d53 8cbe
00000020: 8e9c e53e 2acc ac3e 383f abbc f614 a83e
00000030: 02e3 2e3e 297f c2be 3117 69be 927b c8be
00000040: 5d17 e03c acf3 c6be c8fb 91be f5ac c7be
00000050: 3dd2 d33e 617b 803e daa3 9cbd 251f ffbe
00000060: 1474 453e 0ef3 adbe 80f9 e1be f48d 343d
0.48951694 0.36881799 0.07131975 0.43413606 0.31434238 0.44750464 -0.11313058 -0.27407494
0.44846004 0.33749515 -0.020904168 0.32828492 0.17078784 -0.3798764 -0.22762753 -0.39156777
0.02735489 -0.38857782 -0.28512406 -0.38999143 0.41371337 0.2509413 -0.0764844 -0.4982845
0.19282562 -0.339745 -0.44135666 0.04408069

bias f4 [2]
00000000: e753 483e 7564 16be
0.19563256 -0.14686759
