assets/models/example_model_OneHot_iter0.pt (torch, 112385 bytes, 10 tensors)

weight f4 [37]
0	0x3f255ed9	0.6459785
1	0x3f66e102	0.90187085
2	0x3f581158	0.84401464
3	0x3f5a3b80	0.8524704
4	0x3f3398c0	0.70154953
5	0x3f160ca6	0.5861305
6	0x3f271b9b	0.652765
7	0x3f57fcdd	0.84370214
8	0x3f5c10b1	0.8596297
9	0x3f3f7e75	0.74802333
10	0x3f4c185a	0.7972466
11	0x3f3ec905	0.7452548
12	0x3f58cc28	0.8468652
13	0x3f4872bc	0.7830007
14	0x3f3b1e54	0.7309315
15	0x3f4118fb	0.7542874
16	0x3f3346ea	0.7003008
17	0x3f31c0cf	0.6943483
18	0x3f3511ec	0.7073047
19	0x3f4fbc81	0.8114701
20	0x3f435225	0.7629722
21	0x3f356c51	0.708684
22	0x3ec6f581	0.3885918
23	0x3f8c7078	1.0971823
24	0x3f8aafa7	1.0834855
25	0x3f70a52d	0.9400204
26	0x3f895fdd	1.073238
27	0x3f802327	1.0010728
28	0x3f8793ed	1.0592018
29	0x3f6ed500	0.9329376
30	0x3f79bc24	0.97552705
31	0x3f6b420a	0.9189764
32	0x3f61f445	0.8826335
33	0x3f6314a2	0.8870336
34	0x3f6e29a4	0.9303229
35	0x3f4fb605	0.81137115
36	0x3f702f0b	0.9382178

bias f4 [37]
0	0x3ce33170	0.027733535
1	0x3da385a3	0.079844736
2	0x3ca1d5f9	0.01975535
3	0x3d298871	0.041389886
4	0x3d5346fd	0.05158137
5	0x3d4876b0	0.048941314
6	0xbd2c2182	-0.042024143
7	0x3cc97f06	0.024596702
8	0xbce1390c	-0.027493022
9	0x3d3e7bf8	0.046504945
10	0xbd5115e7	-0.05104628
11	0xbd098c0d	-0.03358083
12	0x3d5f2af4	0.054484323
13	0x3d6086b1	0.05481595
14	0x3da9e2a1	0.08295179
15	0x3b82e4f9	0.003994581
16	0x3d1fa993	0.038980078
17	0xbc03b2f3	-0.00803827
18	0x3d9b02b9	0.07568879
19	0xbc9d8d51	-0.019232424
20	0xbd1b11d7	-0.03785881
21	0xbb50f3c8	-0.0031883586
22	0x3828c6b9	4.0239396e-05
23	0x3c40d768	0.011770107
24	0xba2d23fd	-0.0006604789
25	0xbd255cc2	-0.040371664
26	0x3d25b37f	0.040454384
27	0x3ba04c3f	0.0048919017
28	0x3cf58e03	0.029974943
29	0xbda62be9	-0.08113844
30	0x3d906a76	0.07051556
31	0x3cfd1633	0.030894374
32	0x3d1510e8	0.036393076
33	0xbc974aeb	-0.01846834
34	0xbc584ec7	-0.013202376
35	0x3bf8d0cc	0.00759325
36	0xbd60f6f2	-0.054923005

running_mean f4 [37]
0	0x3d0ef3d3	0.034900498
1	0x3d7c39fe	0.061578743
2	0x3d601a42	0.05471254
3	0x3d8861f6	0.066593096
4	0x3d0131eb	0.031541746
5	0x3c621dff	0.013801097
6	0x3d13d376	0.036090337
7	0x3c72d488	0.014821179
8	0x3d0f5442	0.034992464
9	0x3d47d365	0.048785586
10	0x3d0ee0b6	0.03488227
11	0x3d0489ff	0.032358166
12	0x3d7c2093	0.061554503
13	0x3d58cf6a	0.05293218
14	0x3d40a705	0.047034282
15	0x3d53e31f	0.05173027
16	0x3d191e03	0.037382137
17	0x3ce1c886	0.027561437
18	0x3d3c6018	0.04599008
19	0x3ce8e57f	0.028429745
20	0x3d4b21fa	0.04959295
21	0x3d061468	0.032734305
22	0x3dcccce4	0.10000017
23	0x3ff0f152	1.8823645
24	0x400c6eea	2.1942697
25	0x3f684c46	0.90741384
26	0x40852cd5	4.1617227
27	0x4085472c	4.164938
28	0x40a63c41	5.194855
29	0x40759ec2	3.8378148
30	0x40891c49	4.284703
31	0x402a77f9	2.6635725
32	0x400c43cf	2.1916387
33	0x421cd096	39.203697
34	0x42291f80	42.28076
35	0x42617a65	56.369526
36	0x4265ec13	57.48054

running_var f4 [37]
0	0x3d096f52	0.03355343
1	0x3d6ade67	0.057341006
2	0x3d526983	0.051370155
3	0x3d7cb11c	0.061692342
4	0x3cf96b40	0.030446649
5	0x3c5ebe92	0.01359524
6	0x3d0deb13	0.034648012
7	0x3c6ecafe	0.014574764
8	0x3d09d19c	0.033647165
9	0x3d3d16ff	0.04616451
10	0x3d094088	0.033508807
11	0x3cffab6a	0.031209666
12	0x3d6abf25	0.057311196
13	0x3d4c1547	0.04982498
14	0x3d36a1ce	0.044587903
15	0x3d47c1d4	0.048768833
16	0x3d12a80e	0.0358048
17	0x3cda7f92	0.026672158
18	0x3d329b3e	0.04360508
19	0x3ce1887d	0.027530903
20	0x3d3ffd7f	0.046872612
21	0x3d014a28	0.03156486
22	0x21b2f662	1.2126966e-18
23	0x411ac6fc	9.67358
24	0x4134032c	11.250774
25	0x403e9d4b	2.9783504
26	0x41e8f126	29.117748
27	0x429bd538	77.91644
28	0x42736aa7	60.854153
29	0x4209077c	34.25731
30	0x42392c8f	46.293514
31	0x41856178	16.672592
32	0x4182ad34	16.334572
33	0x456d7abe	3799.6714
34	0x4561d951	3613.5823
35	0x45829dd8	4179.7305
36	0x45e5d9da	7355.2314

weight f4 [512, 37]
0	0xbc1bf84a	-0.009519646
1	0x3cd6778c	0.026180051
2	0xbba94cc8	-0.0051666237
3	0xbc2423b1	-0.010018275
4	0x3cb3cb86	0.021947633
5	0x3b15d854	0.0022864537
6	0x3ba55b9d	0.0050463215
7	0x3d570204	0.052492157
8	0xbd4afdc2	-0.04955841
9	0xbd0d715c	-0.034531936
10	0xbcb9a342	-0.022660855
11	0x3cc065c7	0.023486031
12	0x3c80506b	0.015663346
13	0x3cef8b00	0.029241085
14	0x3d013155	0.031541187
15	0xbbf36d71	-0.007428818
16	0x3cb62b4e	0.022237446
17	0xbca6f68b	-0.020381233
18	0x3c9cc0e2	0.019134942
19	0xbcda92d7	-0.026681347
20	0x3b29cbad	0.0025908754
21	0x3b8fc07a	0.0043869587
22	0xb5cefc8f	-1.54217e-06
23	0xbd555738	-0.05208513
24	0xbd5ccbcf	-0.053905305
25	0xbd116507	-0.035496738
26	0x3dba1198	0.09085387
27	0x3be92cdb	0.007115943
28	0x3d2c7ac8	0.04210928
29	0xbd696e51	-0.05698997
30	0x3d0d598b	0.034509223
31	0xbc106d4d	-0.008815122
32	0xbd347836	-0.044059955
33	0xbd185b5c	-0.037196502
34	0x3cac3fd9	0.021026539
35	0x3c56537f	0.01308143
36	0xbbbf70f4	-0.0058423225
37	0x3c463173	0.012096751
38	0x3d274554	0.0408376
39	0x3c1452f8	0.009052984
40	0x3cfe5faf	0.031051485
41	0xbc3ba885	-0.011453752
42	0x3ce931b4	0.028466083
43	0x3cc180b1	0.023620935
44	0x3d5c1005	0.053726215
45	0x3d9feedc	0.07809231
46	0xbd30838f	-0.043094214
47	0xbbad7241	-0.005293161
48	0x3ca73158	0.020409271
49	0xbc97eecc	-0.018546484
50	0x3d6e8557	0.05823263
51	0x3d4ce9e4	0.050027743
52	0xbcbb480d	-0.022861505
53	0xbc6467be	-0.01394075
54	0xbb360c3c	-0.0027778288
55	0xbcc151a0	-0.023598492
56	0xba9bbee0	-0.0011882447
57	0x3d90f624	0.070781976
58	0xbd06eeaa	-0.03294245
59	0x364a9686	3.0187962e-06
60	0xbb4bf374	-0.0031120451
61	0x3d346479	0.04404113
62	0xbcaa6b93	-0.020803249
63	0x3b7d5ba8	0.0038659368
64	0xbd38a653	-0.045080494
65	0x3c8af622	0.016963068
66	0xbd307b19	-0.043086145
67	0x3da9a2bb	0.082829915
68	0xbc83e628	-0.016100958
69	0xbd23259f	-0.0398308
70	0x3d2678cf	0.040642556
71	0x3b9c04ae	0.0047613
72	0xbc8485e1	-0.01617712
73	0xbc4ebb04	-0.01261783
74	0x3b76b20c	0.0037642745
75	0xbd67ccac	-0.056591675
76	0x3d044b5c	0.03229843
77	0x3d3272a8	0.043566376
78	0x3d823cc3	0.06359246
79	0x3c9209dd	0.017826969
80	0x3cb2659a	0.021776963
81	0x3d5eeb55	0.05442365
82	0xbd0877e7	-0.033317473
83	0x3ce9e6e0	0.028552473
84	0xbc4f6b85	-0.012659912
85	0x3dc33dbc	0.09533259
86	0xbbffecdf	-0.0078102197
87	0xbc3578f3	-0.0110762
88	0xbd258e87	-0.040419128
89	0x3c232d11	0.009959475
90	0x3d32e1b3	0.043672275
91	0xbc518cd1	-0.012789921
92	0x3d381545	0.04494216
93	0x3d45f1ba	0.04832623
94	0xbcb098c9	-0.021557229
95	0x3d23e238	0.04001066
96	0x34bc8782	3.5116324e-07
97	0xbd5a6cec	-0.053326532
98	0x3b165d22	0.0022943695
99	0x3d613427	0.054981377
100	0xbd9cf269	-0.076634236
101	0xbd32d49f	-0.043659803
102	0xbd29f0bc	-0.041489348
103	0xbd5a0cbb	-0.053234797
104	0xbce35a5f	-0.027753053
105	0x3d8cdd30	0.06878126
106	0x3d5e64e5	0.05429544
107	0xbc73580b	-0.014852534
108	0x3dd6cee7	0.10488682
109	0xbcc9ded8	-0.024642393
110	0x3c9b3ecd	0.018950844
111	0x3c1251f7	0.008930675
112	0xbcd821ba	-0.02638327
113	0xbd50c426	-0.05096831
114	0x3cba617d	0.022751564
115	0x3d171f8c	0.03689532
116	0xbc80abc7	-0.01570691
117	0xbcd8d2f4	-0.026467778
118	0x3c4c88be	0.012483774
119	0xbc20662a	-0.009789983
120	0x3c0eb270	0.008709535
121	0x3d28b546	0.0411885
122	0x3d1d3da0	0.03838885
123	0x3ccd4368	0.025056556
124	0x3badc9ac	0.005303582
125	0x3d7ea947	0.062173154
126	0xbd028cc6	-0.031872533
127	0xbbfe35cc	-0.007757878
128	0x3d170bea	0.036876597
129	0x3c50a5d0	0.012734845
130	0x3c5b805e	0.013397304
131	0xbc9215e7	-0.01783271
132	0xbd1e56b5	-0.03865691
133	0x37198a26	9.151676e-06
134	0xbd56ab65	-0.05240955
135	0x3c5ec779	0.013597363
136	0xb9735dd3	-0.00023209238
137	0x3de3a35f	0.11115145
138	0xbc87f79a	-0.016597558
139	0xbd80658e	-0.0626937
140	0xbc65ca80	-0.014025331
141	0x3d51ca0b	0.051218074
142	0xbd2727ca	-0.04080943
143	0x3ae422b6	0.0017405364
144	0xbc7c12b9	-0.015385323
145	0x3d44a379	0.048007462
146	0x3d65cddf	0.056104537
147	0xbb9d8a16	-0.004807721
148	0x3c61472d	0.01374988
149	0xbda5028f	-0.08057129
150	0x3cca7e71	0.024718495
151	0xbd3f1bdd	-0.046657432
152	0x3c70e6e5	0.014703487
153	0xbcb0801e	-0.021545466
154	0x3dae0b12	0.08498205
155	0x3d88b9cf	0.06676065
156	0xbd19f6fb	-0.037589055
157	0x3d447a07	0.047967937
158	0xbd827537	-0.06370013
159	0xbd2c9043	-0.042129766
160	0x3d601424	0.054706708
161	0xbcacfa7b	-0.021115532
162	0x3c30cdec	0.010791283
163	0x3d58efc0	0.05296302
164	0x3d7884f1	0.060673658
165	0x3d372133	0.044709396
166	0x3d1d3766	0.03838291
167	0xbc818aa6	-0.015813183
168	0x3d15ba7a	0.03655479
169	0x3cb2e7d0	0.021839052
170	0xb75e2562	-1.3240935e-05
171	0xbded96b2	-0.116010085
172	0xbcb8a404	-0.022539146
173	0x3d859323	0.06522205
174	0xbd8f3c35	-0.069939055
175	0xbd62cc11	-0.055370394
176	0xbcf96ea1	-0.03044826
177	0xbd20b5e6	-0.039235972
178	0x3dadf21c	0.08493444
179	0x3d6e8c99	0.058239553
180	0xbd1d2aa1	-0.038370732
181	0x3c3c24df	0.0114834
182	0x3dab6a84	0.083699256
183	0xbab01997	-0.0013435361
184	0x3c8eb6e1	0.017421188
185	0xbc2df38e	-0.01061715
186	0x3c76ac6d	0.015055758
187	0x3cb334eb	0.02187582
188	0x3d43e306	0.04782393
189	0x3cafb026	0.021446299
190	0x3d5d339e	0.054004304
191	0xbd3d15ef	-0.046163496
192	0xbd189bf7	-0.037258115
193	0x3ae638aa	0.0017564495
194	0xbc811368	-0.015756324
195	0x3d872c36	0.066002294
196	0x3d82ef4d	0.06393299
197	0xbd5c4a67	-0.053781893
198	0x3da55d97	0.080744915
199	0x3d71205c	0.05886875
200	0x3d52ca96	0.051462732
201	0xbcc0237e	-0.023454424
202	0x3c8f5f67	0.017501546
203	0xbd0574f8	-0.032582253
204	0x3d12559c	0.035726175
205	0x3d03dc38	0.03219244
206	0xbd951c8a	-0.07280834
207	0x377dfbdc	1.5138616e-05
208	0x3cde8e5a	0.027167488
209	0xbda0923b	-0.07840391
210	0xbdb0c0cb	-0.08630522
211	0xbd960dd8	-0.07326859
212	0x3dc2921f	0.09500527
213	0xbd55b240	-0.052171946
214	0x3db918e5	0.090379514
215	0xbd04fe8a	-0.03246931
216	0xbd52ae35	-0.051435668
217	0x3da91b75	0.0825719
218	0x3de52d29	0.11190254
219	0xbcac5910	-0.021038562
220	0x3c13c70a	0.009019623
221	0xbc15f8cf	-0.009153559
222	0xbcbfc858	-0.023410961
223	0x3bdb6122	0.0066949287
224	0x3c0a3320	0.008435041
225	0xbc4fb653	-0.012677747
226	0xbcaa8415	-0.020814935
227	0xbc74bdcc	-0.014937829
228	0x3ca9be98	0.020720765
229	0xbc3671bd	-0.011135516
230	0x3c99aced	0.018759215
231	0x3c103255	0.008801063
232	0x3c5fc189	0.013656982
233	0x3c80cdc5	0.015723119
234	0x3b4ab9a6	0.003093341
235	0xbd0a8ed1	-0.033827607
236	0x3c2f93f6	0.010716429
237	0xbb5ea5cd	-0.0033973337
238	0x3c95f270	0.01830408
239	0xbc353471	-0.011059866
240	0xbcc2b309	-0.023767011
241	0x3befd4d4	0.0073190723
242	0xbb26230e	-0.0025350484
243	0x3ba3877c	0.004990516
244	0xb6587fd6	-3.2260918e-06
245	0x3c97201d	0.01844793
246	0xbb99b84d	-0.00469116
247	0x3d0d0d83	0.034436714
248	0xbc974f19	-0.018470334
249	0x3caa2502	0.0207696
250	0xbd0aaf48	-0.033858567
251	0xbca7aebf	-0.020469068
252	0xbcd3f1f1	-0.025872203
253	0x3c56d217	0.013111613
254	0xbd154f2b	-0.036452454
255	0x3d2465dd	0.040136207

bias f4 [512]
0	0x3d478545	0.04871108
1	0x3cabd869	0.020977216
2	0xbd23a5a8	-0.039952904
3	0xbcaad124	-0.02085168
4	0xbd02e98e	-0.031961016
5	0xbd02e8f4	-0.031960443
6	0xbc4b3a93	-0.012404102
7	0xbd02f6cd	-0.03197365
8	0x3d159cc4	0.036526456
9	0x3cdf8cd7	0.027288837
10	0x3ddef24b	0.108860575
11	0x3d01a357	0.031649914
12	0xbba169f5	-0.004925961
13	0x3b548dff	0.003243327
14	0x3be847cf	0.0070886384
15	0x3c62e96e	0.013849599
16	0x3d2fa713	0.042883944
17	0x3dca30a6	0.0987256
18	0xbd2db9a2	-0.04241336
19	0x3cebbdc7	0.028777016
20	0x3d3705b8	0.04468319
21	0xbd1e87f6	-0.03870388
22	0x3c4281fc	0.011871811
23	0x3d5b8f45	0.05360343
24	0xbabc57bc	-0.0014369409
25	0x3cf242cf	0.029572872
26	0x3d911cbe	0.0708556
27	0xbd6d8956	-0.057992302
28	0x3d1213a1	0.03566325
29	0x3d06de03	0.03292657
30	0x3d2e294b	0.04251985
31	0x3bda075a	0.0066537084
32	0x3d26e553	0.040746044
33	0xbbdb4539	-0.0066916016
34	0xbd0c96e3	-0.034323584
35	0x3c07fd58	0.008300148
36	0xb92a7cab	-0.00016258906
37	0x3ca57153	0.020195639
38	0x3d34f4ae	0.044178657
39	0xbcdde8e6	-0.027088594
40	0xbaf1b7ca	-0.0018441614
41	0x3d7a09de	0.061044566
42	0x3d132d64	0.03593196
43	0x3d393ade	0.045222156
44	0x3d68becd	0.056822587
45	0x3cd078ba	0.025448192
46	0x3d64a0a5	0.055817265
47	0x3daf5895	0.085618176
48	0x3d078684	0.03308727
49	0x3d149d99	0.03628311
50	0x3b90fadf	0.0044244374
51	0x3bfb0b5b	0.007661266
52	0xbcc969a2	-0.024586502
53	0x3c70b21c	0.014690902
54	0x3d54f9e4	0.051996127
55	0x3d8767c4	0.066115886
56	0x3c2842e6	0.010269856
57	0x3d0dde3c	0.034635767
58	0xbc279cae	-0.010230226
59	0xbcf53f0b	-0.029937288
60	0x3c8dc19b	0.017304232
61	0x3d139519	0.036030862
62	0x3b872330	0.0041240677
63	0x3d4068c9	0.04697493
64	0xbcc4a76f	-0.02400562
65	0x3d51d0c6	0.051224492
66	0x3d4efe04	0.050535217
67	0x3c2c0e75	0.010501494
68	0x3be0f9b7	0.006865706
69	0x3cf2b173	0.02962563
70	0x39d943be	0.00041439937
71	0x3ca3d73f	0.020000098
72	0x3ce30ad0	0.027715117
73	0x3ca60423	0.020265644
74	0xbc4d7551	-0.012540177
75	0xbc37d4cb	-0.011220167
76	0x3cb89848	0.02253355
77	0xbd1ae6ea	-0.037817873
78	0x3db9d253	0.09073319
79	0x3d44b69c	0.048025712
80	0x3c989a37	0.018628223
81	0x3e0b5829	0.13607849
82	0x3c41fa81	0.01183951
83	0x3d775b1e	0.06038963
84	0xbd4a324d	-0.049364377
85	0x3d962a8c	0.07332334
86	0x3c592702	0.013253929
87	0xbc4ddeae	-0.012565298
88	0x3cf43576	0.029810648
89	0xbb005687	-0.0019582824
90	0x3c8bca68	0.017064288
91	0xbc4154fd	-0.011800048
92	0x3d6e23cf	0.05813962
93	0x3c999266	0.018746566
94	0x3ce7baec	0.028287373
95	0x3d4860e0	0.048920512
96	0x3cc8fc09	0.024534242
97	0xbc87f471	-0.016596051
98	0x3cbf64b2	0.023363445
99	0xbd40744a	-0.046985902
100	0xbc9b6f32	-0.01897392
101	0x3d5d2058	0.053985924
102	0xbdc7aa1f	-0.09749245
103	0xbc98818a	-0.018616457
104	0x3ab5c33b	0.0013867387
105	0xbd2930c1	-0.04130626
106	0x3bc409fb	0.005982635
107	0x3d0ef7df	0.034904357
108	0x3c184cb4	0.009295631
109	0xbcf761c3	-0.030197984
110	0xbd0cd684	-0.034384266
111	0x3d54fa4a	0.051996507
112	0x3cbad0a3	0.022804564
113	0x3d8e5aae	0.069508895
114	0x3d34b2d6	0.044115864
115	0x3db27e96	0.087155506
116	0x3c9c9d1c	0.019117884
117	0x3cb2fc32	0.021848772
118	0x3d4fb6ee	0.050711565
119	0x3d95893e	0.073015675
120	0xbc998f54	-0.018745102
121	0xbcbdc531	-0.023165317
122	0x3ca813b1	0.020517202
123	0xbd435bb9	-0.047694895
124	0x3c8e9402	0.01740456
125	0x3cf37504	0.029718883
126	0xbd24ab7c	-0.040202603
127	0x3c138b51	0.009005384
128	0xbd01a963	-0.03165568
129	0x3d0e6b33	0.034770202
130	0xbcdd8c34	-0.027044393
131	0x3d707a60	0.058710456
132	0x3d948eb1	0.07253779
133	0xbd0fb15e	-0.03508126
134	0x3d02192e	0.031762294
135	0xbcb48b88	-0.02203919
136	0x3c92a621	0.017901482
137	0x3c18b822	0.009321244
138	0x3c84c2ca	0.016206164
139	0x3beffb64	0.0073236693
140	0x3d43a0a6	0.04776063
141	0x3dbce66a	0.092236355
142	0x3d39ec6c	0.045391485
143	0x3b8663cb	0.0041012517
144	0x3d116b96	0.035502993
145	0x3cfe1868	0.031017497
146	0x3c38ab44	0.011271302
147	0xbd252c7f	-0.040325638
148	0x3d12bf60	0.03582704
149	0x3e0207e0	0.12698317
150	0x3a68551a	0.0008862779
151	0xbb97563a	-0.0046184333
152	0x3cf4d1f1	0.029885264
153	0x3c8ee3c7	0.017442597
154	0xbd6c541d	-0.057697404
155	0x3b632559	0.0034659712
156	0x3db3d28b	0.08780392
157	0xbd0f01d1	-0.03491384
158	0x3d14fcd6	0.036373936
159	0xbd099dad	-0.033597637
160	0x3d3a849c	0.045536622
161	0x3d2a16bb	0.041525584
162	0xbca46d89	-0.020071762
163	0xbc50ca0e	-0.012743486
164	0xbc7d3cee	-0.015456421
165	0x3c57ce64	0.013171766
166	0x3dcb0074	0.09912196
167	0x3d9267d0	0.07148707
168	0xbcccf839	-0.025020706
169	0x3c05b8f8	0.008161776
170	0x3d17bf1b	0.037047487
171	0x3d8f206c	0.06988606
172	0xbd312029	-0.04324356
173	0x3ce0d58e	0.02744558
174	0x3c9348a2	0.01797897
175	0x3c53e783	0.012933615
176	0xbd1a3b69	-0.037654314
177	0x395b3f19	0.00020908973
178	0x3ce576d3	0.028010761
179	0xbce7bf74	-0.028289534
180	0x3c471d89	0.012153038
181	0x3b609c70	0.0034272932
182	0xbcd6b3e2	-0.026208822
183	0x3d98fb52	0.074698105
184	0x3bbb12ee	0.0057090437
185	0xbcb942d7	-0.02261488
186	0x3cd23c82	0.025663618
187	0xbc829d39	-0.01594411
188	0x38bea836	9.091238e-05
189	0x3d9fa074	0.07794276
190	0x3d9fd348	0.078039706
191	0xbcec283c	-0.028827779
192	0x3d4445c6	0.047918104
193	0x3d0a16e0	0.03371322
194	0xbd2bc42c	-0.04193513
195	0x3cab67e3	0.02092356
196	0x3da696cf	0.08134233
197	0x3c9e91d5	0.019356648
198	0x3d9b2995	0.075762905
199	0x3b5d7938	0.0033794176
200	0x3a6d0242	0.0009041169
201	0x3da562c4	0.08075479
202	0x3d02531e	0.031817548
203	0x3bed32c8	0.0072387196
204	0xbcff0c90	-0.03113392
205	0x3ca7dd34	0.02049122
206	0x3cb8fc55	0.022581259
207	0x3de0b132	0.10971297
208	0xbc953f2f	-0.018218605
209	0xbbca5970	-0.0061752126
210	0xbd353c46	-0.044246934
211	0x3d724126	0.05914416
212	0x3d0be182	0.034150608
213	0x3d0e6a89	0.03476957
214	0x3d935891	0.07194627
215	0x3d2098d4	0.03920825
216	0x3b246d94	0.0025089728
217	0x3bf6605a	0.00751881
218	0x3b80d1e2	0.00393127
219	0xbcad410d	-0.021149183
220	0x3d0ae7f5	0.033912618
221	0xbca763a4	-0.020433255
222	0x3cdf0915	0.02722601
223	0x3d8441d8	0.06457871
224	0xbcfea8d6	-0.031086367
225	0xbc85f082	-0.016350035
226	0xbc87a5b8	-0.016558513
227	0x3cd7197e	0.026257273
228	0x3c7d5a69	0.01546345
229	0x3d57c044	0.052673593
230	0xbd6e2a86	-0.058146022
231	0xbcdda5be	-0.027056571
232	0x3cb225cd	0.02174654
233	0xbba29b9b	-0.0049623973
234	0xbcf700bb	-0.030151716
235	0x3da67718	0.08128184
236	0x3c1f59a2	0.00972596
237	0x3cd93a46	0.026517045
238	0x3af62abf	0.001878105
239	0xbd8f9010	-0.070098996
240	0xbc9100f9	-0.01770066
241	0xbd2faac5	-0.042887468
242	0x3d6c08b8	0.057625502
243	0xbc223e39	-0.00990253
244	0xbc70658b	-0.014672647
245	0xbdb0cc07	-0.08632665
246	0xbc2933dc	-0.010327306
247	0x3a607793	0.000856274
248	0xbbf6b737	-0.007529165
249	0xbd161faf	-0.03665131
250	0xbd09ce7d	-0.03364419
251	0x3d62453f	0.05524182
252	0x3d3d894e	0.046273522
253	0xbcfad662	-0.030619804
254	0x3cc0e9cc	0.023548983
255	0x3d117395	0.03551062

weight f4 [14, 512]
0	0xbcecf2c0	-0.028924346
1	0xbc17e0b7	-0.009269885
2	0x3d5a74b5	0.053333957
3	0xbcb0ea27	-0.021596028
4	0x3da19083	0.078888915
5	0x3de4d189	0.11172778
6	0xbcd102d9	-0.025514053
7	0xbc9659df	-0.0183534
8	0xbd633cff	-0.055478092
9	0x3d38215b	0.044953685
10	0x3d52c0d4	0.051453426
11	0xbd88bf48	-0.06677109
12	0xbd68c1ec	-0.056825563
13	0xbc9ddeae	-0.019271221
14	0x3b4a4d82	0.0030868952
15	0xbd6afd62	-0.05737055
16	0xbd1748b5	-0.036934573
17	0x3d8b6206	0.06805806
18	0xbd3ff558	-0.046864837
19	0xbd392238	-0.04519865
20	0xbc41221b	-0.0117879165
21	0xbd2ea962	-0.042642005
22	0x3d3a7842	0.045524843
23	0x3d81ca3b	0.063374005
24	0xbc7cff29	-0.015441694
25	0x3d89c53f	0.06727075
26	0x3d1a3bb6	0.0376546
27	0xbdb81790	-0.08988869
28	0xbd2cf4b0	-0.04222554
29	0x3d93cfa9	0.072173424
30	0x3d9d4b86	0.076804206
31	0x3d2d001f	0.042236444
32	0x3b9d2ac9	0.00479636
33	0xbd15f5c2	-0.036611326
34	0x3d82177e	0.06352137
35	0x39d79cd3	0.0004112484
36	0x3cb54d81	0.022131683
37	0x3cae0d30	0.021246523
38	0xbd07aca6	-0.033123635
39	0xbd64c77b	-0.055854302
40	0xbc7efc3a	-0.015563065
41	0xbc4bc60d	-0.012437356
42	0x3d9fdbd6	0.07805602
43	0x3c87ba49	0.01656832
44	0xbdd46c2b	-0.10372194
45	0xbd29763c	-0.041372523
46	0x3d702163	0.05862559
47	0xbd19a224	-0.037508145
48	0x3cbb2a74	0.022847392
49	0xbcfc073e	-0.030765172
50	0x3b0c0677	0.0021366158
51	0x3d3c7a16	0.046014868
52	0x3d084d65	0.033276934
53	0xbd3aebd5	-0.045635063
54	0xbd27fd7b	-0.041013222
55	0x3cd6728f	0.026177673
56	0x3c829008	0.01593782
57	0xbce31bae	-0.02772316
58	0x3d619945	0.05507781
59	0xbd3dd72d	-0.046347786
60	0xbd719e22	-0.058988698
61	0x3b5c4061	0.0033607709
62	0xbc43aa7c	-0.011942502
63	0x3d9328f0	0.071855426
64	0xbd04e367	-0.03244343
65	0x3d7e54d3	0.062092613
66	0xbd6172f9	-0.055041287
67	0x3d2bc77c	0.04193829
68	0x3c6647c2	0.014055194
69	0xbb54a6ac	-0.0032447977
70	0x3cf7184b	0.030162951
71	0x3cd96f3f	0.026542304
72	0x3d6be77b	0.057593804
73	0x3cbd5b85	0.023114929
74	0xbb5edbce	-0.0034005526
75	0x3d00222a	0.03128258
76	0x3d880af4	0.06642714
77	0x3d7d27c8	0.061805516
78	0x3d478ceb	0.048718374
79	0x3d17efab	0.0370938
80	0xbbd6469c	-0.006539179
81	0x3dae8aee	0.085225925
82	0xbcb0ae28	-0.02156742
83	0x3bce90b1	0.0063038697
84	0x3d2e2e90	0.042524874
85	0xbd9f2423	-0.077705644
86	0x3d68292b	0.056679886
87	0x3dacb9cf	0.08433878
88	0xbb84da47	-0.004054341
89	0xbda20137	-0.07910388
90	0xbc80b222	-0.01570994
91	0x3d6a2147	0.057160642
92	0xbd2c9767	-0.042136576
93	0x3bf84c53	0.007577458
94	0x3c962448	0.018327847
95	0x3d2c6451	0.042087857
96	0xbc04e159	-0.008110368
97	0xbd582e1c	-0.05277835
98	0x3d2dd77c	0.04244183
99	0xbd9b3a58	-0.075794876
100	0x3bc78316	0.0060886247
101	0x3d5912c1	0.0529964
102	0xbd6634df	-0.056202766
103	0xbdba3315	-0.090917744
104	0xbd6ac9e2	-0.057321437
105	0xbd2713d8	-0.04079041
106	0x3bcd8ccc	0.006272888
107	0xbd2ae2ee	-0.041720323
108	0xbd2febb5	-0.042949397
109	0xbc9db10f	-0.019249467
110	0xbd81493b	-0.06312796
111	0xbd556af3	-0.052103948
112	0xbd483347	-0.048877027
113	0x3d59e97c	0.053201184
114	0xbd30f81e	-0.043205373
115	0x3d2a6b63	0.04160632
116	0x3c3b9a30	0.011450335
117	0x3d8cdfc8	0.068786204
118	0xbb9fb5c6	-0.004873964
119	0x3d5b85e0	0.05359447
120	0x3d9735aa	0.073832825
121	0x3d7629b1	0.060098354
122	0xbc81ac4a	-0.015829224
123	0xbd8b0afe	-0.06789206
124	0xbd557ed8	-0.05212292
125	0x3d5f6e0f	0.05454832
126	0x3d878ef5	0.06619064
127	0x3c690daa	0.014224449
128	0xbd0b07b7	-0.033942904
129	0x3dad9917	0.08476465
130	0xbc9c30b8	-0.0190662
131	0xbd747bd8	-0.05968842
132	0x3d9012c8	0.07034832
133	0xbd8a74ce	-0.0676056
134	0xbcc8c679	-0.024508702
135	0xbd05d94d	-0.032677937
136	0x3d757b70	0.059932172
137	0x3d56528d	0.05232482
138	0x3d22775a	0.039664604
139	0xbd192bfb	-0.03739546
140	0x3da1f7a7	0.07908564
141	0x3d90edde	0.070766196
142	0x3c971f51	0.01844755
143	0xbd092fc7	-0.03349283
144	0xbd8fe43b	-0.070259534
145	0xbcb60831	-0.022220703
146	0xbd2316d6	-0.0398167
147	0x3dc525da	0.0962636
148	0x3d846098	0.06463736
149	0x3d88a7ce	0.06672631
150	0x3d375d19	0.04476652
151	0xbd1183d4	-0.03552611
152	0xbc4faeea	-0.01267598
153	0x3caf1ab1	0.021375032
154	0xbd3a8674	-0.04553838
155	0x3da99616	0.0828058
156	0x3cd6b38c	0.026208661
157	0xbd0135cf	-0.031545456
158	0x3cc09056	0.023506325
159	0xbd137182	-0.03599692
160	0xbbfbd08a	-0.007684772
161	0xbc42d8a3	-0.0118924705
162	0xbcb8efa3	-0.022575205
163	0xbb6b2f32	-0.0035886285
164	0xbd3f2021	-0.0466615
165	0xbd8c522e	-0.06851612
166	0x3d0ab178	0.033860654
167	0x3d301be0	0.042995334
168	0x3d2482d4	0.04016383
169	0x3c2a79a2	0.010404976
170	0x3c975994	0.018475331
171	0x3d85b102	0.06527902
172	0x3d612393	0.054965567
173	0xbd8173b0	-0.06320894
174	0x3d66b753	0.056327175
175	0xbcac47f0	-0.021030396
176	0x3de9b265	0.11410979
177	0xbd86fb80	-0.065909386
178	0x3d585462	0.05281485
179	0xbdc19ebe	-0.09454106
180	0x3d2d8b83	0.042369377
181	0x3d404181	0.04693747
182	0xbce53554	-0.02797953
183	0x3d86f36a	0.06589396
184	0xbc3bf7ed	-0.011472684
185	0xbc27c4a6	-0.010239756
186	0xb8faf627	-0.000119667784
187	0x3d566c9d	0.052349675
188	0xbd04bc81	-0.032406334
189	0x3d9613d2	0.07327999
190	0x3b52c8ac	0.0032163067
191	0x3d37e06d	0.044891763
192	0xbd0b5ced	-0.034024168
193	0x3ce96998	0.028492734
194	0xbd4befa4	-0.049789086
195	0x3a2412ef	0.0006258925
196	0x3d862651	0.06550277
197	0xbd22b5ec	-0.039724275
198	0xbd39dc9a	-0.045376398
199	0xbbe2386b	-0.006903698
200	0xbd3adfc5	-0.04562356
201	0x3d5073d8	0.050891727
202	0x3d481706	0.04885008
203	0xbd94595d	-0.07243607
204	0x3d94deea	0.0726908
205	0x3d80cf43	0.06289532
206	0x3c8b03ba	0.01696955
207	0x3d59d5d8	0.053182453
208	0xbc66fdd9	-0.014098608
209	0x3c176f26	0.009242808
210	0xbd927911	-0.07151998
211	0x3d204ed6	0.039137684
212	0x3d42d0e2	0.047562487
213	0xbbffc20d	-0.007805115
214	0x3dc78a3d	0.09743164
215	0xbca0f0fd	-0.019646162
216	0x3c8caf85	0.017173538
217	0x3ce3896c	0.027775489
218	0x3cadf609	0.021235483
219	0xbdaf1dd9	-0.08550615
220	0x3d160a99	0.0366312
221	0x3d3388fc	0.04383181
222	0xbd0519bd	-0.03249525
223	0x3d388d50	0.04505664
224	0xbd56718a	-0.052354373
225	0x3daef00a	0.085418776
226	0xbcce7449	-0.025201933
227	0xbd0e9e1f	-0.034818765
228	0xbcd76b1c	-0.02629619
229	0x3dcfb224	0.101413995
230	0xbd96a097	-0.07354849
231	0xbc9be9a7	-0.019032313
232	0x3d3e5221	0.046465043
233	0x3cddd6ec	0.027080022
234	0xbd8da53d	-0.06916282
235	0x3d2a28da	0.041542865
236	0x3d1b97f4	0.03798671
237	0xbccf5929	-0.02531107
238	0xbca75ff5	-0.020431498
239	0xbdb18d5a	-0.08669539
240	0x3d427268	0.047472388
241	0x3da464dc	0.0802705
242	0x3cbb4236	0.02285872
243	0xbd07dc57	-0.033169117
244	0x3d64b3e8	0.055835634
245	0xbdc1744a	-0.094460085
246	0xbd5e2d51	-0.054242436
247	0x3db1ea3c	0.08687255
248	0xbd2457d0	-0.040122807
249	0xbd28477b	-0.041083794
250	0xbd246f94	-0.04014547
251	0xbd27d7ec	-0.040977404
252	0xbc52d88f	-0.012869014
253	0x3dbbe49f	0.091744654
254	0xbd2f8d47	-0.042859342
255	0x3d8b8896	0.06813161

bias f4 [14]
0	0x3d615797	0.055015173
1	0x3d89d3b9	0.06729836
2	0xbbd6458b	-0.006539052
3	0x3d8c6bb9	0.06856484
4	0x3da07600	0.07835007
5	0x3c8805c4	0.016604312
6	0x3dc5c51e	0.09656738
7	0x3d650e77	0.055921998
8	0x3d4d9c2b	0.05019776
9	0x3d0b0746	0.033942483
10	0x3cbebb72	0.02328274
11	0x3d0951f5	0.033525426
12	0x3d8e1545	0.069376506
13	0x3d82923a	0.06375547

weight f4 [2, 14]
0	0x3eec460f	0.461472
1	0x3eaebbc7	0.34127638
2	0x3d921017	0.07131975
3	0x3ecd818b	0.40137896
4	0x3e933001	0.28747562
5	0x3ed48394	0.41506636
6	0xbe021d73	-0.12706546
7	0xbe938627	-0.28813288
8	0x3eda4e8d	0.42638054
9	0x3ea15d14	0.31516325
10	0xbd1695c3	-0.036763918
11	0x3e9b459d	0.30326548
12	0x3e1202e1	0.1425891
13	0xbec9c74c	-0.39409864
14	0xbe4c5f51	-0.19958235
15	0xbeba619a	-0.3640259
16	0x3ce0175d	0.02735489
17	0xbeb62e1b	-0.3558205
18	0xbe843a47	-0.25825712
19	0xbeb71130	-0.357553
20	0x3edaf4b5	0.42764822
21	0x3e87adfd	0.2649993
22	0xbd5ed76e	-0.05440467
23	0xbef3b00b	-0.47595248
24	0x3e55b194	0.20868522
25	0xbea123ad	-0.3147253
26	0xbed38967	-0.41315767
27	0x3d6eceff	0.058302876

bias f4 [2]
0	0x3e3b0b53	0.18266039
1	0xbe091bde	-0.13389537
